maalicious/phishing_detection.tflite (tflite, 48152 bytes, 5 tensors)

arith.constant f4 [1, 64]
00000000: 6da6 ce3d 66f5 993d af48 38bd fffc debd
00000010: 017c 9e3d 67c5 043e 066c 123e dcfe f53c
00000020: 7685 3abe 0f7f 8a3d 8ab8 163e cba6 76be
00000030: 5347 d5bd 5e27 943d f60d 233e a5ba 003e
00000040: 8e0d d0bd d9a5 a0bd 1b74 fe3d 833d 16be
00000050: b9fb 80bd a731 82bd 61bf b63d 9f1e e6bd
00000060: 58e8 93bd 5435 dfbd aa4a 00be 6fe0 513e
00000070: 39e9 0bbe 89f3 49be f350 bfbd b90e 8d3e
00000080: 2feb 6bbe 9775 003e 08a6 af3d 6564 e93d
00000090: 8f8b 013e 1df4 a73d 8258 2b3e db78 d03d
000000a0: 58f0 fc3d 6268 623d 96f3 0ebe 19c9 173e
000000b0: eef3 56bd 2a34 e43d 10e6 25be 1515 fabd
000000c0: 8e94 84bd 56a3 38bd 0aa4 74be 194b b6bd
000000d0: 1fcc e6bd 5bc0 aebd 966a cbbd d627 afbd
000000e0: b6d8 263e 3cbe 0b3e ed55 963d f9bb 5e3e
000000f0: 50cf d5bd c142 3d3e f0b7 873d af5f 2abe
0.10090337 0.07517509 -0.04499119 -0.10888099 0.077384956 0.12965928 0.1429902 0.030028753
-0.18214974 0.06762516 0.14718834 -0.24087064 -0.10413995 0.07234071 0.15923294 0.12571199
-0.10158835 -0.07844133 0.12424489 -0.14671902 -0.06298012 -0.06357127 0.089232214 -0.11236309
-0.072220504 -0.108988434 -0.12528482 0.20495771 -0.13663186 -0.19721808 -0.09341612 0.27550295
-0.23038934 0.12544857 0.0857659 0.11396102 0.12650894 0.08200858 0.16732982 0.10179301
0.123505294 0.05527533 -0.13960108 0.14822806 -0.052478723 0.11142762 -0.16201043 -0.12211052
-0.06473647 -0.045077644 -0.23890701 -0.089010425 -0.11269402 -0.08532783 -0.09932439 -0.0855252
0.16293606 0.13646787 0.07340608 0.21751393 -0.10439932 0.18482496 0.0662688 -0.16638063

arith.constant1 f4 [64, 128]
00000000: c7cd df3f 9707 0c3f 50ab 233d 4685 21c0
00000010: 394a 1abe 445e f63d 453a b63e 0a68 93c0
00000020: ecf1 46c0 43bb b5bf 033c 23be feff d13e
00000030: 73ab 153f 2c12 c1be ac98 fdbd 16da ce3e
00000040: e371 953f 8bae 9ec0 90c8 dbbf e153 4fc0
00000050: 7c45 dcbd 2a74 753e b5bd 6abe 3417 2d3e
00000060: 157f ccbd 8132 6ebf 5aa2 13be 276c cebf
00000070: 947b 183e 6765 4ebd 7dbd 9bbd fbbf 32bf
00000080: ec92 05bf 09fe 8abf b3a5 46c0 b0ac 8f3d
00000090: 8501 753e b8c3 5f3f 1ff0 8d3d 8366 dcbe
000000a0: 64a9 283f 4b16 933e cd13 31bf 6966 55bf
000000b0: 7c13 9bbf 7d2b 833e bb75 74c0 c5b0 dabd
000000c0: 9eaf 7cbf fbd6 1a3d 2301 1b3f b36a ad3f
000000d0: 2a03 30bc cfa1 423f 3f6a f4bd f929 bbbf
000000e0: 4843 91c0 085c 0cbe a7a1 683f e5e6 a23c
000000f0: 11af 0dbe 3a71 fb3e e6d1 1b3e c683 04c0
00000100: 374b 9bbd ea62 403f d819 58c0 7919 633e
00000110: 55f5 99be 51eb 083b cdb7 27c0 7c20 343f
00000120: 250f 34c0 1266 093f ee63 293e c51b 90bc
00000130: 64e2 483e 98cd 1dc0 9677 0bc0 f92b d1be
00000140: 3d5f 153e 2234 8b3c 24f3 b5bf 08f4 323e
00000150: 840d 43be 2e40 66bf c8b8 8f3f f5fd dd3e
00000160: 67cf a93e 2cc7 e43d 0a6f 703f 94a2 01be
00000170: ec37 a6bf 0609 af3e d3e7 ce3e 5df8 0a3e
00000180: 06cd d73d cbb7 80be 1955 e23e c09e c3bf
00000190: 5d3e c73e 0013 8a3d 30de 05c0 12bf f1be
000001a0: 49f3 8a3c 44b2 89bd 997e fbbe 762b 363f
000001b0: e7b5 26c0 e200 38c0 24bc 063f 32d3 afbf
000001c0: 8519 f13e 3dd7 2ec0 0730 9f3e 7f0a 0cbc
000001d0: 7f7b 433f fdda a53e d68a 093f 7968 73be
000001e0: c6bd 77be a23d b0be f4a4 c5bd 9a82 16bd
000001f0: 585e 953e e015 1abe d6eb 3b3e b3fb d5be
00000200: adb1 f13f 43dd ae3e 3c03 d23d 940b f7bc
00000210: beeb 113e f00c b63d 8ae0 e13d afc7 ccc0
00000220: 5bf5 c6bf c047 8b3e 7317 583d 54e6 e63d
00000230: 0010 b4be 2537 8bbe ec78 b03e fba6 9fbe
00000240: 84b0 a740 daff 98be acfb a7bf 3d36 83be
00000250: 059a b13e a307 82be a84b dfbf 57cf 273f
00000260: 8013 a43e 72e5 98bf f038 e03e 679e eb3e
00000270: 98da 5d3e da8a 9bbe 5394 efbe 55e7 82bf
00000280: 18c9 af3e fb88 30bf 2543 f0bf 1f92 5c3e
00000290: 3530 80c0 50db 123f 9cf6 9a3d d480 c8bd
000002a0: 7c84 833f 04bd 00bf 6626 af3f e99c adbe
000002b0: 5b15 0b3f 6f42 00bf a96f 043f 6459 803e
000002c0: a1ac 95be b695 a1bd 2513 6bbe 1d3c a63d
000002d0: 016d ccbe c313 cd3e a708 60be a0d8 4bc0
000002e0: 33dc 863f e8f1 0a3d bad1 b7be c05d 94bd
000002f0: c8e2 32bf cf3f 1e3f 8bd4 f83d 5d60 65bf
00000300: 5bfb 0cbd 5713 8a3e e636 adbf d913 e13d
00000310: 4184 f5be d338 2cbe f03e bf3e 4303 8a3d
00000320: 1438 a9be 5e6a a2c0 11f1 c4be b20a ac3e
00000330: 5feb eb3e 4fbb 9ebf cc36 01c0 48de 723f
00000340: d991 efbf 2cbb fd3c 8072 76bd a93a e03e
00000350: 3ad6 11be 6f5a 9c3e c27a 23bf 2d2c c8be
00000360: 72aa c03d 3056 013e bd62 e9be 9c0b df3e
00000370: 444c a13e cbc0 5cc0 0a18 a53c 08ee c1be
00000380: 8995 f03e f79a 4bbf 6818 1c3f 95a9 34bf
00000390: 1086 12bf fbdd cbbe 4b1e d13e a3fc a1bd
000003a0: d679 f03c 5b66 99be 2844 0bc0 451b a93f
000003b0: b0c8 8ebc b078 7abd 006f 82bf c875 c0bc
000003c0: 4d53 d93d 06fb 30c0 a4b3 efbd 2978 63be
000003d0: 807b d6bd d4fe 53be 1b95 213c 64e0 24bf
000003e0: 6c03 bcbe 13bc 5dbe e98c abbd 4307 493d
000003f0: 2b29 0cbe 8373 d7bd 3e5c 673c 8809 bfc0
1.7484673 0.5469908 0.0399583 -2.5237594 -0.15067376 0.120296985 0.3559133 -4.60645
-3.1085157 -1.4197773 -0.15940861 0.4101562 0.58464736 -0.37709177 -0.123826355 0.4040076
1.167538 -4.9588065 -1.7170582 -3.2394946 -0.107554406 0.23970094 -0.2292393 0.16903383
-0.099851765 -0.9304581 -0.14417401 -1.6126755 0.14890891 -0.050389674 -0.076045014 -0.6982419
-0.5217731 -1.0858775 -3.1038635 0.070153594 0.23926361 0.8740802 0.06930565 -0.4304696
0.6588347 0.28727946 -0.6917084 -0.8335939 -1.2115321 0.25619116 -3.8196857 -0.10678247
-0.9870547 0.037802678 0.6054861 1.3548187 -0.010742942 0.7602815 -0.11934327 -1.4622184
-4.539463 -0.13706982 0.9087166 0.01988549 -0.13836314 0.49109823 0.15216789 -2.0705428
-0.075827055 0.7515093 -3.3765774 0.22177686 -0.30069986 0.0020892213 -2.6205933 0.7036207
-2.8134243 0.5367137 0.16542026 -0.017591367 0.19617611 -2.4656734 -2.179174 -0.4085386
0.14587112 0.016992632 -1.4214826 0.17475903 -0.19048125 -0.8994168 1.1228266 0.43357816
0.33166048 0.111708015 0.9391943 -0.12659675 -1.2985816 0.34186572 0.40411243 0.13571306
0.10537152 -0.25140223 0.4420555 -1.5282822 0.38914767 0.06741905 -2.0916862 -0.47216088
0.01696171 -0.067234546 -0.49120024 0.71160066 -2.6048524 -2.875054 0.5263083 -1.3736327
0.47089782 -2.731887 0.3109133 -0.008547424 0.76360315 0.32393637 0.5372747 -0.23770322
-0.24193487 -0.34422022 -0.09650603 -0.036745645 0.2917354 -0.15047407 0.18351683 -0.41793594
1.8882347 0.34153184 0.10254523 -0.030156888 0.14250085 0.088891864 0.110291556 -6.3993754
-1.5543627 0.27203178 0.052756738 0.112744 -0.35168457 -0.2719051 0.34467256 -0.31182083
5.2402973 -0.298827 -1.3123679 -0.25627318 0.3468782 -0.2539645 -1.7444963 0.6555075
0.32046127 -1.1945021 0.4379344 0.4601929 0.21665418 -0.30379373 -0.4679285 -1.0226847
0.3433311 -0.68959016 -1.8770491 0.21540116 -4.0058846 0.57365894 0.07566568 -0.09790197
1.0274806 -0.50288415 1.3683593 -0.33908775 0.5432946 -0.5010137 0.5173288 0.250682
-0.29233268 -0.07889883 -0.22956522 0.081169344 -0.39926913 0.4005414 -0.218783 -3.1850967
1.053595 0.033922106 -0.35902196 -0.07244444 -0.6987729 0.61816114 0.12149914 -0.89600164
-0.0344194 0.2696788 -1.3532379 0.10990114 -0.47952464 -0.16818552 0.37352705 0.067389034
-0.33050597 -5.0754843 -0.3846517 0.3360191 0.4607801 -1.2400912 -2.0189695 0.94870424
-1.8716384 0.03097304 -0.06016779 0.43794754 -0.14241877 0.30537745 -0.6385919 -0.39096203
0.0940751 0.12630534 -0.45583144 0.43563545 0.315035 -3.4492671 0.020153064 -0.37876916
0.46989086 -0.7953333 0.6097474 -0.7057126 -0.57235813 -0.39817795 0.40843424 -0.07909515
0.02935497 -0.29960904 -2.176035 1.3211447 -0.01742968 -0.061150253 -1.0190125 -0.023493662
0.106115915 -2.7653213 -0.117041856 -0.22213806 -0.104727745 -0.20702678 0.00986221 -0.6440489
-0.3672136 -0.21653776 -0.08376486 0.04907919 -0.1368758 -0.10520079 0.014121113 -5.9699135

sequential_1/dense_1_2/BiasAdd/ReadVariableOp f4 [64]
00000000: c6de 243f 0fa4 b93f 88ea 153f c45e f4bf
00000010: dcbf bd3f 0f6b 7f3f 0e65 bb3e bb74 2f3f
00000020: bac7 d63f d489 193f 17df 853f 6b13 44c0
00000030: 5325 9e3f d851 853f d108 863f 2ce3 173d
00000040: 54f0 933f af7b 483f 9305 34bd dfdf be3f
00000050: 6c27 713f 11f2 43bf 89bf 6e3f d257 a73f
00000060: 5622 97bd df1e 753f 7ae5 33be 329c d43e
00000070: 3e0d 253e e227 2a3e a65b e53e c146 b63f
00000080: ccff 343f 5949 edbd 6195 b83e 6570 b83f
00000090: 9266 043e de04 9d3f f2f4 b93f c86a be3e
000000a0: 20fc 0140 fa88 843f bc52 ef3f c112 973f
000000b0: a4f0 163f d934 db3e a416 973f 8d13 ad3f
000000c0: 2dce 4d3e 1bde 52bf 0e40 e23e a946 443f
000000d0: 30b9 0740 1282 3d3f 5c2e a43f 161f cabe
000000e0: 4ae8 9b3f fef8 0cbe 813d 0c40 c6a2 a13f
000000f0: 18df a43f f728 973e 08df b63f d0ad a93f
0.64402425 1.4503192 0.5856099 -1.909142 1.4824176 0.99772733 0.36600536 0.6853749
1.6779702 0.59975934 1.0458707 -3.0636852 1.235514 1.0415602 1.047144 0.037081882
1.1557717 0.78313726 -0.04395063 1.491207 0.9420078 -0.7654124 0.9326101 1.3073676
-0.07379596 0.9575023 -0.17568007 0.41525418 0.16118333 0.16616777 0.44796485 1.4240342
0.70702815 -0.115862556 0.36051467 1.44093 0.12929752 1.226711 1.4527876 0.37190843
2.0310135 1.0354302 1.8697124 1.1802598 0.5896094 0.42813757 1.1803784 1.3521591
0.20098181 -0.82370156 0.44189495 0.7667032 2.120678 0.74026597 1.2826648 -0.39476842
1.2180264 -0.13766858 2.191254 1.26278 1.2880583 0.2952344 1.4286814 1.3256168

sequential_1/dense_1/BiasAdd/ReadVariableOp f4 [128]
00000000: 599d 23c0 d9a3 abbf e5b8 aabf f1e1 c6bf
00000010: 0fd7 8dbf 803c eabf fed0 3abf 8a06 febf
00000020: 3afb afbf ac29 9abf 2db4 eebf 19fb 2fbf
00000030: 9691 e6bf e963 9bbf a1ba 67bf 93c4 a7bf
00000040: 80d2 ddbe 66c9 a3bf 1f30 afbf b753 8abf
00000050: e079 93bf 2c8a 80bf f808 7ebf 2912 9ebf
00000060: f21e 5fbe 1c74 12c0 e386 44bf df40 4cc0
00000070: 5d72 acbf 443c 82bf 7729 91bf 7775 e9bf
00000080: 5301 b1bf 30bd 9dbf 7207 e8bf 582f f8be
00000090: 363b 89bf 1763 08c0 c45b 29c0 573b cabd
000000a0: 6c44 7abf 114f dcbf b616 5abf 93b9 0ec0
000000b0: 0229 d7bf 5642 f8bf d0b7 56c0 f9f5 92bf
000000c0: 9fbf d0bf 4dc4 cabf 7803 c9bf 846e 53bf
000000d0: 2bb9 a4bf 0d22 07c0 857d f5bf d9c5 a1be
000000e0: 695f f8bf d243 e7bf 6487 86bf 7d70 edbf
000000f0: 1d10 84bf 87bd edbf 88ab bcbf 3050 cebf
00000100: f564 67bf f370 bbbf 6d97 eebf 712b b6bf
00000110: 5d95 55bf 187c 98bf f853 c8bf 60fd d2bf
00000120: 04d1 0ec0 d95c bfbf 6a28 e1bf 1037 52bf
00000130: ace6 b0bf eaa0 02c0 ca94 19c0 3715 01c0
00000140: 07db 0ebf 6f69 e3bf 6751 65bf 4c43 8cbf
00000150: 9bf0 a7bf 9b47 96bf 5ae2 abbf b829 abbf
00000160: 32fc 51bf cbcd b8bf 1caf 0ec0 2179 bdbf
00000170: 7eda b8bf b1ae c7bf a3e5 a9bf 8b6d 1ec0
00000180: 04b2 bebf bd30 85bf b295 6cbf 4d89 e3bf
00000190: 73bd 7abf dd20 f4bf f8c9 05c0 73c2 43bf
000001a0: 27ac 84bf 5d77 2cbf 200a ccbf 0b79 99bf
000001b0: fb00 06c0 e85b d2bf 0ad2 dbbf 44d3 86bf
000001c0: 6235 c5bf 1c76 a6bf 9f69 9fbf 6d2f 87bf
000001d0: f44a 1bc0 ac55 6bbf c337 9abe d7d6 c4bf
000001e0: e695 0bc0 dc8d 9ebf ef63 73bf 6284 c4bf
000001f0: 88aa 92bf 5911 d3be fc6e 85be b432 90bf
-2.5564787 -1.3409377 -1.3337675 -1.5537702 -1.1081256 -1.8299713 -0.72975147 -1.9845746
-1.3748543 -1.2043967 -1.8648735 -0.6874252 -1.8013179 -1.2139865 -0.9051915 -1.3106865
-0.4332466 -1.2795837 -1.368656 -1.0806798 -1.1521568 -1.0042167 -0.99232435 -1.2349292
-0.21789148 -2.2883368 -0.7676832 -3.1914594 -1.3472401 -1.0174642 -1.1340779 -1.8238972
-1.3828529 -1.232336 -1.8127272 -0.4847362 -1.0721195 -2.131048 -2.646226 -0.098745994
-0.97760653 -1.7211629 -0.85190904 -2.2300766 -1.680939 -1.9395244 -3.354969 -1.1481315
-1.6308478 -1.5841156 -1.5704184 -0.8259051 -1.2869009 -2.1114533 -1.917893 -0.31596258
-1.9404117 -1.8067572 -1.0510068 -1.8549954 -1.0317417 -1.8573464 -1.4739847 -1.6118221
-0.90388423 -1.4643844 -1.8639961 -1.4232007 -0.83431035 -1.191287 -1.5650625 -1.6483574
-2.2315073 -1.495021 -1.7590458 -0.8211527 -1.3820395 -2.0410714 -2.3997064 -2.0169199
-0.5580296 -1.7766551 -0.89577335 -1.0958037 -1.3120302 -1.1740602 -1.3428452 -1.3372107
-0.82025445 -1.4437803 -2.2294378 -1.4802591 -1.4441679 -1.5600187 -1.3273205 -2.475436
-1.4898076 -1.0405499 -0.92415917 -1.7776276 -0.97945327 -1.9072529 -2.0904522 -0.7646858
-1.0365037 -0.67369634 -1.594059 -1.1990064 -2.0938098 -1.6434298 -1.7173474 -1.0533223
-1.5406916 -1.3004794 -1.2454108 -1.0561348 -2.4264498 -0.919276 -0.30120668 -1.5378064
-2.181024 -1.2387042 -0.9507436 -1.53529 -1.1458292 -0.41224173 -0.26061237 -1.1265473

sequential_1/dense_1/MatMul f4 [128, 24]
00000000: 0eee b4bf 637c 6c3f 9a41 03bc f2bf e23d
00000010: 786e 1d3c 6408 e1bd f2de 91bf 9171 b6bf
00000020: 8d61 3c3c 9be5 2e3e 5636 57bf f0dc 2c3f
00000030: 290d 11bd 9e6f a8bb 3cf5 183f 20de babe
00000040: c34c 7f3d 4fbf 143d fff8 1d3b 2f35 6c3d
00000050: c0c7 9d3d 0796 d53d b492 4cbd fada 1540
00000060: e438 b6bf 6072 b1bd 8a16 5d3e 4517 b3be
00000070: 7619 56bc 004d 533f d6cd a93f aee2 fcbf
00000080: 8922 943e 926f 60bf 2c80 633f 0e0a 773e
00000090: f46b 0c3e 667e 3a3e 5a86 3f3d 9104 853e
000000a0: a723 d13d 4c32 173d 55e5 753e d3b7 813c
000000b0: 8f1a 77be 05b1 c53f 03d0 da3e a5db be3f
000000c0: d3ec fd3e dd6c 33be 94e2 883e e696 48bf
000000d0: 3585 d73d 76fe 493f 9a2b f83e a61c a23e
000000e0: a5ad c2be f34b 643e 1762 c2bf 8b9f c1bd
000000f0: 5b6c e53d 1e53 91be 2fe1 b8bf 2bda cd3e
00000100: 425d 183e e059 e5bb 8300 0d3e 3114 0c3e
00000110: b4f2 09bf 9cc0 1fbf ed01 813e bb2f 593f
00000120: 8fcd 243f 7160 0bbf 058e fabd 747e 5bbf
00000130: c41c 8dbe 8ff2 bebe 988b 133f d299 4cbe
00000140: 3446 50be 3ac3 29bf 8e5c 063b 5288 c03e
00000150: 850e 053e 9b7f 0cc0 ae38 debe 1837 3a3f
00000160: def1 b4be e547 0cbe d505 bcbe 90b5 f8bd
00000170: defe a33f 0072 06c0 d43b 33be a1c8 863f
00000180: 26a1 bf3e 9491 59ba a527 273e 09c2 9abc
00000190: fab0 0a3e b4f5 a83e e02b 83c0 6846 b2be
000001a0: fb20 b4bd a976 a4bd a37b 7fbc 97fc f6be
000001b0: fb66 dabd d0af 703f 66e2 a53e aef8 12be
000001c0: d971 1d3e a9c0 2dbe bbde 03be a289 63be
000001d0: 93dd cd3d 982b e0bc 1559 203f acac 133f
000001e0: 0648 95bf 703e 63bf f96d 923d b6b9 7fbd
000001f0: fdf2 3a3e 52f5 72bf 0ef0 00bd ea5b dcbe
00000200: 3032 a0bc 0db6 db3e 0ebd 403d e7cf 41bf
00000210: 5ee4 38bd dfbc 89bd d8de 4dbe a031 a03f
00000220: f6fc 403e 4155 05be b0ef 4f3e 5880 053e
00000230: 12f2 bf3e e755 fd3d fa50 bcbe 96ad 0f40
00000240: 1d3d 4f3f fefb 24bd 68d7 cbbd 535c 97bd
00000250: 8a99 b9bd 6ca4 2f3e 1713 8e3f cf06 17bf
00000260: 85d5 78be 6f60 303d 1fdb 18be 7caa 3fbf
00000270: c767 2d3d 9ba5 14c0 e72e d03e 961f af3e
00000280: 117c 57bb 473b 63bd ffcd f53d de60 81be
00000290: 9200 32bf 3265 07bf 1e0f 3b3f ce88 d23e
000002a0: 75c6 2c3f 991a 14c0 9a0b 8d3d d95e b83f
000002b0: 8088 eebd dff7 a0bd e286 753e a944 04bf
000002c0: 7537 3f3d 9a02 37bd ece7 473d 3d87 fe3d
000002d0: 0229 3cbd ac16 54be b4b3 0fbe 3341 06bd
000002e0: bf7f 70bd 58d9 20bd 392c d6bc fc8d 4b3e
000002f0: 896b a43e e9a3 4bbf c6a7 0bbe bd9c fe3f
00000300: f7bf 39bf 2143 bdbd 8895 a83e 107e 90be
00000310: c795 5b3e cf13 d0bf b4b3 403f 3f9e 243e
00000320: 7dab 8b3b 4d5e 99be 1679 843d f240 a0be
00000330: 37b3 a1bd a935 16c0 19fd 89bc 1ec6 c53e
00000340: cbb9 db3e c741 98bc f64e a13e 2d01 093b
00000350: 6504 4d3f 8343 d53d f86c 313f af3f e13f
00000360: df63 bcbd 111a 693e 6576 3abe 9a94 4c3e
00000370: 12ad 7abe cffb 573f 3797 b0bf eec1 343f
00000380: 559a d03e f87a 3c3e 7442 ffbf dc4e 8dbe
00000390: 2dae 743e 3146 963e b6ac a8be 084f 0dbf
000003a0: 4386 e43e f066 b93d d045 803e a817 09be
000003b0: c507 d73d 2c54 b53e dfc1 79be 8016 6f3f
000003c0: 8cf2 16bf 5c4d 0ec0 5f97 743e f3ed c6be
000003d0: 378a 94bc d186 bcbe 8d0b 133f 0e08 9c3f
000003e0: b772 aabd 076b 9d3e f745 fdbe 5f33 85be
000003f0: df58 ef3d d60a 19c0 4e2e e6be 9171 2abe
-1.4135149 0.923773 -0.008011246 0.11071767 0.009608857 -0.109879285 -1.1396163 -1.4253408
0.011497867 0.17079775 -0.84067285 0.67524624 -0.03541294 -0.005140259 0.597492 -0.36497593
0.062329065 0.03631526 0.0024104712 0.057667907 0.07704115 0.10429006 -0.049944595 2.3414903
-1.4236112 -0.086643934 0.21590629 -0.3497869 -0.013067594 0.8253937 1.3265941 -1.9756677
0.28932598 -0.8767024 0.8886745 0.2412493 0.13713056 0.1821228 0.046758987 0.25980046
0.10211878 0.0369132 0.24013264 0.015834725 -0.24131225 1.5444647 0.42736825 1.491078
0.49594745 -0.17521997 0.26735365 -0.7835525 0.10523454 0.789039 0.48470765 0.31662482
-0.38023105 0.22294597 -1.5186185 -0.094542585 0.11202308 -0.28383726 -1.444372 0.4020551
0.14879325 -0.0069992393 0.13769726 0.13679577 -0.5388596 -0.62403274 0.25196782 0.84838456
0.6437616 -0.5444403 -0.12234119 -0.8573983 -0.2756101 -0.37294433 0.5763488 -0.19980553
-0.2033928 -0.6631352 0.0020501944 0.37604004 0.1299382 -2.1952884 -0.43402618 0.72740316
-0.3534078 -0.136993 -0.367232 -0.12144005 1.2812154 -2.100708 -0.17503291 1.0529977
0.37427634 -0.0008299586 0.16323717 -0.018891351 0.13544074 0.32999957 -4.099106 -0.3481934
-0.08795353 -0.08030445 -0.015593442 -0.48239586 -0.10664173 0.9401827 0.3239929 -0.14352676
0.1537546 -0.16968025 -0.12877934 -0.22220472 0.100520276 -0.027364537 0.6263593 0.5768535
-1.1662605 -0.8876715 0.07149882 -0.062432967 0.18256755 -0.9490558 -0.031478934 -0.43038875
-0.019555181 0.4291233 0.047055297 -0.7570786 -0.045139663 -0.067254774 -0.2010454 1.2515144
0.18846497 -0.13020803 0.20306277 0.1303724 0.37489372 0.123699 -0.3678053 2.2449698
0.80952626 -0.04027938 -0.09953195 -0.07390656 -0.090624884 0.17152566 1.1099576 -0.58994764
-0.24300201 0.043060716 -0.14927338 -0.74869514 0.042335298 -2.3226078 0.40660784 0.34203786
-0.0032880346 -0.055476453 0.12002181 -0.25269216 -0.6953212 -0.52888787 0.7306994 0.4112
0.6749032 -2.3141234 0.068869784 1.4403945 -0.11647129 -0.07859778 0.23977235 -0.5166727
0.046683747 -0.044680215 0.048805162 0.124281384 -0.045937546 -0.20711774 -0.14033395 -0.032777023
-0.05871558 -0.039269775 -0.026144134 0.19878381 0.32113293 -0.7954698 -0.13638219 1.9891583
-0.7255854 -0.092413194 0.32926583 -0.28221178 0.21443854 -1.6256045 0.75274205 0.16075991
0.0042623864 -0.29954758 0.06468408 -0.3129955 -0.07895511 -2.3470252 -0.01684432 0.38627714
0.42915186 -0.018586053 0.31505555 0.0020905242 0.8008483 0.104132675 0.693069 1.759756
-0.091987364 0.2276385 -0.18209226 0.19978562 -0.24480084 0.84368604 -1.3796147 0.70608413
0.40742746 0.18406284 -1.9942155 -0.27599227 0.23894568 0.29350427 -0.32944268 -0.5519872
0.44633684 0.09052837 0.25053263 -0.1338793 0.10499529 0.3541578 -0.24390362 0.9339371
-0.5896385 -2.2234716 0.23885868 -0.38853416 -0.018132312 -0.36821607 0.574395 1.2189958
-0.08322661 0.30745718 -0.4946744 -0.26015756 0.11686873 -2.3912864 -0.44957203 -0.16644885
