maalicious/phishing_detection.tflite (tflite, 48456 bytes, 6 tensors)

arith.constant f4 [4, 64]
0	0xbee3c02a	-0.44482547
1	0xbe4ada57	-0.19809853
2	0x3eb2c8f2	0.34918934
3	0xbcffb9dc	-0.031216554
4	0x3d0de80c	0.034645125
5	0x3f79eaef	0.97624105
6	0xbff27efa	-1.8945
7	0xbeb89a86	-0.36055392
8	0xbebd658a	-0.3699153
9	0xbb1f7638	-0.0024331938
10	0x3d91769e	0.071027026
11	0xbf35d700	-0.7103119
12	0xbf8274f7	-1.0191945
13	0xbe2896ea	-0.16463819
14	0xbd70e8fa	-0.058815934
15	0xbc830d87	-0.015997661
16	0xbf05baa2	-0.52237904
17	0xbebe3793	-0.37151775
18	0x3e10f02d	0.1415412
19	0xbca0bb95	-0.019620696
20	0xbe5f8f11	-0.21831919
21	0xbf4bb0ed	-0.7956684
22	0xbf57fc92	-0.84369767
23	0x3e1ec7b2	0.15505865
24	0x3ceb05bb	0.028689256
25	0x3c1018ff	0.008795022
26	0xbf22ba43	-0.6356546
27	0x3e31a89c	0.17349476
28	0xbd95e522	-0.07319094
29	0x3de55756	0.11198299
30	0xbdd2d2eb	-0.10294136
31	0xbd5e21f7	-0.05423161
32	0x3dd3248a	0.10309704
33	0xbd92ba5d	-0.07164452
34	0xbe87fb92	-0.2655912
35	0xbde8d0bd	-0.11367939
36	0x3df89129	0.12137062
37	0xbf357fb9	-0.70898014
38	0xbea82e84	-0.3284799
39	0x3eb139db	0.34614453
40	0xbe0158a1	-0.12631465
41	0xbf1ac8bc	-0.60462546
42	0xbf404f36	-0.75120866
43	0xbf08930a	-0.53349364
44	0x3cf1577d	0.029460663
45	0x37d8a904	2.582791e-05
46	0xbf2b0b97	-0.6681456
47	0x3dce4e24	0.10073498
48	0xbe0df93b	-0.13864605
49	0x3e1dfa50	0.15427518
50	0xbf8adf29	-1.0849353
51	0x3e2c519b	0.16828005
52	0xbe313419	-0.1730503
53	0xbf06e313	-0.5269024
54	0x3d84d87a	0.06486602
55	0xbe8d3ea6	-0.2758686
56	0xbf0c38bc	-0.5477407
57	0xbcb31c85	-0.021864185
58	0x3d4e9a83	0.050440323
59	0xbdd8554e	-0.105631456
60	0xbfce790f	-1.6130694
61	0x3d2576e4	0.040396586
62	0xbd0f4bf5	-0.034984548
63	0x3e537ae1	0.20652343
64	0x3d572ad1	0.052531067
65	0xbf3c384e	-0.73523414
66	0xbed98c18	-0.42489696
67	0x3e368194	0.17822868
68	0xbf558be7	-0.834166
69	0xbfbd5bc4	-1.479363
70	0xbf296f49	-0.6618543
71	0xbd6b614f	-0.057465848
72	0x3e3aa07d	0.18225284
73	0xbf57b5da	-0.8426186
74	0xbf506690	-0.814065
75	0xbf32bb5b	-0.6981713
76	0xbdb99560	-0.09061694
77	0xbf406674	-0.7515633
78	0xbdf1efdd	-0.118133284
79	0xbf2eefcf	-0.6833467
80	0x3aae37b0	0.0013291743
81	0xbf8fc17b	-1.123092
82	0xbd4a2e05	-0.049360294
83	0xbd627ec0	-0.05529666
84	0xbe012587	-0.12611972
85	0xbca06edf	-0.019584117
86	0xbfb274fd	-1.3941952
87	0x3e2aa111	0.16663004
88	0x3b83851a	0.0040136697
89	0xbf53c008	-0.8271489
90	0xbea586e1	-0.32329467
91	0xbe9b1dcd	-0.30296174
92	0x3e91bc17	0.28463814
93	0xbf5bf70a	-0.85923827
94	0xbe6c1282	-0.23053935
95	0xbf2be539	-0.6714664
96	0x3d811339	0.063024946
97	0xbec0817b	-0.37598786
98	0xbf16f740	-0.58971024
99	0xbf86c4b5	-1.052878
100	0xbaf529e5	-0.0018704502
101	0x3c01e301	0.007927657
102	0x3e6c56fa	0.23080054
103	0x3d4670d8	0.04844746
104	0x3e9d5017	0.30725166
105	0x3d97a8f5	0.07405273
106	0xbdd268e8	-0.102739155
107	0x3e4fb459	0.20283641
108	0x3efbad8b	0.4915584
109	0xbf33a286	-0.70169866
110	0xbdb11125	-0.08645848
111	0xbf63c760	-0.889761
112	0xbf0ec74d	-0.5577286
113	0xbf719d4f	-0.9438066
114	0xbe881ddb	-0.26585278
115	0xbeb4f692	-0.35344368
116	0xbf62af25	-0.885485
117	0xbca29e3b	-0.01985084
118	0x3d197c4e	0.03747206
119	0xc004e641	-2.0765536
120	0xbe05814c	-0.13037604
121	0xbfda86d2	-1.7072394
122	0xbf14ad3e	-0.58076847
123	0xbdb606bf	-0.088880055
124	0x3e83b9c0	0.25727654
125	0xbf886d13	-1.0658287
126	0xbf3fef84	-0.74974847
127	0xbf5a25d1	-0.85213953
128	0xbe5eb465	-0.21748503
129	0x3d892549	0.06696565
130	0xbe3320b3	-0.17492943
131	0x3d081b45	0.03322913
132	0xbebb16c5	-0.3654081
133	0xbf0165dc	-0.5054605
134	0x3fb2f538	1.3981085
135	0x3db1e24d	0.086857416
136	0x3e215df0	0.1575849
137	0xbd016956	-0.031594597
138	0x3e0bc820	0.1365056
139	0xbf0b91fc	-0.5451963
140	0xbdd60fbb	-0.10452219
141	0xbf1c93dd	-0.6116312
142	0xbed8fd21	-0.42380622
143	0xbdf5ffb3	-0.120116614
144	0xbef091e4	-0.46986306
145	0x3f335066	0.70044553
146	0x3e3c0afe	0.18363568
147	0xbe644bd7	-0.22294556
148	0xbe23a895	-0.15982278
149	0xbd2f8c9b	-0.0428587
150	0xbf653363	-0.89531535
151	0xbd419a62	-0.04726637
152	0xbf25349a	-0.6453339
153	0xbe8641e6	-0.26222152
154	0xbd922afe	-0.07137106
155	0xbd1b4c87	-0.03791478
156	0x3d91eb87	0.071250014
157	0x3de35d07	0.11101728
158	0x3e3fb53c	0.18721479
159	0xbdd40f5e	-0.103544936
160	0xbe5a41b5	-0.21314128
161	0xbe74e516	-0.23915514
162	0x3dd91152	0.10599007
163	0xbeb0e867	-0.3455231
164	0xbe38c3c3	-0.18043427
165	0xbe8a415f	-0.27003
166	0x3dc1ecec	0.094690174
167	0xbe3c2756	-0.1837438
168	0x3e26f5c9	0.16304697
169	0xbedf96c9	-0.43669727
170	0xbdbbeb42	-0.09175731
171	0x3d602bca	0.05472926
172	0xbe4c9911	-0.19980265
173	0x3d2fd60f	0.04292875
174	0xbba9c459	-0.005180877
175	0x3db83cf8	0.08996004
176	0xbf40667f	-0.75156397
177	0x3e0c7d4a	0.13719669
178	0xbd89d8aa	-0.067307785
179	0x3e29162b	0.16512363
180	0xbe45a8fd	-0.19302745
181	0xbec7df42	-0.3903752
182	0xbf0fe77b	-0.56212586
183	0xbf95412c	-1.1660514
184	0xbe9fe564	-0.312297
185	0x3e9bc716	0.30425328
186	0x3cdb8c97	0.026800437
187	0xbe17ab71	-0.14811493
188	0x3e71fcfe	0.23631665
189	0xbbc3bd07	-0.0059734615
190	0xbe3a0820	-0.18167162
191	0x3db1386a	0.08653338
192	0x3d136e31	0.03599376
193	0x3ec029ee	0.3753199
194	0xbf05ef89	-0.52318627
195	0xbf27f570	-0.6560888
196	0xbf544382	-0.8291551
197	0x3e12d973	0.14340763
198	0xc0a21e83	-5.0662246
199	0x3d90135e	0.07034944
200	0x3d60b138	0.05485651
201	0xbee8b4f0	-0.45450544
202	0xbf02105c	-0.5080621
203	0x3d89c448	0.06726891
204	0xbdf82a14	-0.12117401
205	0x3dbd3482	0.09238531
206	0xbd2af53d	-0.041737784
207	0xbdaff4d7	-0.08591621
208	0xbcfb2428	-0.03065689
209	0xbffc97ba	-1.9733803
210	0xbe8392a2	-0.2569781
211	0xbe605e79	-0.21911038
212	0xbef01fd5	-0.46899286
213	0xbc82db34	-0.015973665
214	0x3eaade89	0.33372906
215	0xbf235161	-0.6379605
216	0x3d1d56ec	0.038412973
217	0xbe20354f	-0.15645336
218	0xbe804873	-0.25055274
219	0xbf347f29	-0.7050653
220	0xbeb092f9	-0.3448713
221	0x3d7ad50b	0.06123833
222	0x3dea4389	0.114386626
223	0xbf571194	-0.840112
224	0xbf828f4d	-1.0199982
225	0xbbea269f	-0.0071457173
226	0x3cb2ab3c	0.021810167
227	0x3eb89dc8	0.36057878
228	0xbed36e06	-0.4129488
229	0xbe129f0d	-0.14318486
230	0xbe83df76	-0.25756425
231	0xbe84e550	-0.25956202
232	0xbf0b80ed	-0.544936
233	0xbf69cae7	-0.9132523
234	0xbdea491c	-0.11439726
235	0xbd7ec0f4	-0.062195733
236	0xbecde1ca	-0.40211326
237	0xbe7b856a	-0.24562612
238	0xbe3761ad	-0.17908354
239	0x3d75f19c	0.06004487
240	0xbefe7b5d	-0.49703494
241	0x3dc14f37	0.09438937
242	0xbdad80db	-0.08471843
243	0x3dc9d3f5	0.09854881
244	0xbe0378b5	-0.12839015
245	0xbea26561	-0.3171797
246	0x3e289417	0.16462742
247	0x3efeba49	0.497515
248	0x3e8ff1a2	0.2811404
249	0xbf08bce3	-0.5341322
250	0xbdbc80fe	-0.09204291
251	0xbf3e2ac6	-0.7428402
252	0x3e6c8bb7	0.23100172
253	0xbd8a66f0	-0.06757915
254	0xbce97849	-0.02849974
255	0x3e768ee7	0.2407795

arith.constant1 f4 [64, 128]
0	0xbe5a8fd9	-0.21343936
1	0x3f76ac5a	0.9635674
2	0x3d343423	0.043995034
3	0xbe4192f6	-0.18903717
4	0xbf4f329c	-0.809366
5	0xbfd94757	-1.6974896
6	0xbd4c725b	-0.049913745
7	0xbffd3fd1	-1.97851
8	0xbf920b95	-1.1409785
9	0xbdfb6633	-0.12275352
10	0x3ce5f1a9	0.028069334
11	0x3d024c94	0.03181131
12	0xbfdc2978	-1.7200155
13	0x3e42028e	0.18946287
14	0x3d9bbd67	0.07604485
15	0xbface099	-1.3506042
16	0xbfb96f48	-1.4487085
17	0x3c0a5211	0.008442418
18	0x3e6803ae	0.22657654
19	0x3f196e1a	0.59933627
20	0xbe62062c	-0.22072667
21	0xbed8733a	-0.4227541
22	0xbf6d0a65	-0.92593986
23	0xbdb68396	-0.08911817
24	0x3e5e75cb	0.21724622
25	0xbefd7b55	-0.49508157
26	0xc00c0d60	-2.1883163
27	0x3d98ace3	0.074548505
28	0x3da35174	0.0797452
29	0x3e197117	0.14984547
30	0xbf2ffdde	-0.68746746
31	0xbe04e432	-0.12977675
32	0x3eaf081c	0.34185874
33	0xbe33ad47	-0.17546569
34	0xbfce154f	-1.6100253
35	0x3ec8d59f	0.3922548
36	0xbebacafb	-0.36482987
37	0xbd950cae	-0.07277809
38	0x3d962804	0.07331851
39	0xbf1c3eb2	-0.61033165
40	0x3e5e8f0a	0.21734253
41	0xbe451102	-0.19244769
42	0x3e3bb2f1	0.1832998
43	0xbfa9e789	-1.3273784
44	0x3e17121f	0.14753006
45	0x3d53764f	0.0516265
46	0xbfb572e4	-1.4175687
47	0xc01b483f	-2.4262846
48	0xc01fc3c8	-2.4963245
49	0x3e2a99ce	0.16660234
50	0xbdd90944	-0.105974704
51	0x3e75be05	0.23998268
52	0x3de1d707	0.11027341
53	0xbef3b14d	-0.47596207
54	0xbeb0b989	-0.34516552
55	0x3dd88d9b	0.10573884
56	0x3e819f36	0.2531678
57	0x3da35e7c	0.07977006
58	0xbf9d5b9e	-1.2293584
59	0xbddbcf74	-0.10732928
60	0x3e809e61	0.25120834
61	0x3eae7519	0.34073713
62	0x3f0241d7	0.50881714
63	0x3e873516	0.2640769
64	0x3e61db02	0.22056201
65	0x3eb4cd39	0.35312822
66	0x3e906e74	0.2820927
67	0xc03c4866	-2.9419188
68	0xbfbb8013	-1.464846
69	0xbd6bdbe1	-0.05758274
70	0xbff80cd3	-1.9378914
71	0xc00010e0	-2.00103
72	0x3f1472d2	0.579877
73	0xbfcb535d	-1.5884815
74	0xc004c1c5	-2.0743268
75	0x3c414961	0.01179728
76	0x3e02dde4	0.12779957
77	0x3e91e5b9	0.28495577
78	0x3edc1038	0.42981124
79	0xbdcab2bb	-0.098973714
80	0x3ec32d17	0.38120338
81	0x3ea017cf	0.31268165
82	0xbee6f987	-0.4511225
83	0xbdcd9fba	-0.10040231
84	0x3bd7b7e6	0.0065832017
85	0x3da5468b	0.08070096
86	0x3d94e5dc	0.07270405
87	0x3d723031	0.05912799
88	0x3d5c38ba	0.053765036
89	0xbeaf6b4c	-0.3426155
90	0x3f21ec3e	0.632511
91	0xbeadd38b	-0.33950457
92	0x3c68b6d8	0.01420375
93	0x3dcb9a7c	0.09941575
94	0xbd89fa95	-0.06737248
95	0xbe9753f6	-0.29556245
96	0xbfafb587	-1.3727273
97	0xbe733350	-0.23750043
98	0x3e193ef5	0.14965422
99	0xbf95cbb7	-1.1702794
100	0xbb13ceaa	-0.0022553601
101	0xbea7d426	-0.32779044
102	0x3e15f73a	0.1464509
103	0xbdc4d98a	-0.09611805
104	0xbfd39fd2	-1.6533148
105	0xbecf551e	-0.40494627
106	0x3dff984b	0.124802195
107	0xbfc7436f	-1.5567454
108	0xbed61b75	-0.41817823
109	0xbf9fad47	-1.2474755
110	0x3dd33a50	0.103138566
111	0xbcbc5b7c	-0.022992842
112	0xbccce070	-0.025009364
113	0xc007cfdb	-2.1220615
114	0xbde51923	-0.11186435
115	0xbfa9c398	-1.3262815
116	0x3d909b31	0.070608504
117	0xbff8557b	-1.9401087
118	0x3ee2cfa4	0.44299042
119	0x3e0f02f0	0.13965964
120	0x3e8e0835	0.27740636
121	0x3e742bda	0.23844853
122	0xbefe80a4	-0.4970752
123	0xbf1805e5	-0.59383994
124	0x3e3657ee	0.1780698
125	0x3dff32a2	0.12460829
126	0xbcf464fc	-0.02983331
127	0x3ed8ffbb	0.42382607
128	0x3ea1877f	0.31548688
129	0x3c9679a3	0.018368548
130	0x3d0684c3	0.032841455
131	0x3dde9e30	0.108700156
132	0xbd5c9f9e	-0.05386316
133	0x3ec63a95	0.3871657
134	0xbf7ab6ae	-0.97935
135	0xbedf6fc8	-0.4363997
136	0xbee74667	-0.451709
137	0x3ec7cc3e	0.39023012
138	0xbea62cd1	-0.32456067
139	0x3e84ade9	0.25913933
140	0xc04007f7	-3.0004861
141	0x3dcad81d	0.099045016
142	0xbfcf7a4e	-1.62092
143	0x3cd68efc	0.026191227
144	0xbd8d4ba2	-0.068991914
145	0x3e5159aa	0.2044436
146	0xc00c8a2d	-2.1959336
147	0xbf79eda4	-0.97628236
148	0x3c239aac	0.009985607
149	0x3d4f2425	0.05057158
150	0xbe89d3a2	-0.26919276
151	0xbde00573	-0.10938539
152	0xbd2a3eff	-0.041563984
153	0xbf2e9c20	-0.6820698
154	0xc008fdf8	-2.140501
155	0xbf12858a	-0.57235014
156	0xc0246fe2	-2.5693288
157	0x3db410ea	0.087922886
158	0xbf9c5d8a	-1.2216046
159	0x3efe082a	0.49615604
160	0x3f39217c	0.7231672
161	0x3e794c88	0.243456
162	0xbe13de41	-0.14440252
163	0x3cbe732f	0.023248283
164	0xbc9b0818	-0.018924758
165	0xbfc4e36b	-1.5381902
166	0xbe762d1c	-0.24040645
167	0x3f99fba4	1.202992
168	0x3df7146a	0.120644405
169	0xbda071e1	-0.07834221
170	0x3e414e07	0.18877421
171	0x3cec90f2	0.028877709
172	0x3e77c2ba	0.24195376
173	0x3eb072a9	0.3446248
174	0xbe5b26ee	-0.21401569
175	0xbf7529bc	-0.95766807
176	0xc0c1bd44	-6.0543537
177	0xbfc665ed	-1.5499855
178	0xbf8d47f7	-1.1037587
179	0x3eb1d055	0.34729257
180	0x3e94769b	0.2899674
181	0x3e052321	0.13001682
182	0x3dc3a590	0.09553063
183	0xbfde0f51	-1.7348424
184	0xbe0fab5e	-0.14030215
185	0x3e89a834	0.2688614
186	0xbe43d9fd	-0.19126125
187	0x3f77a23b	0.9673192
188	0x3dd9582f	0.10612523
189	0x3e05be6a	0.13060918
190	0x3ec64e99	0.3873184
191	0xc02645aa	-2.598002
192	0x3ec3a3d9	0.38210943
193	0xbfac30e1	-1.3452417
194	0xc02b7edd	-2.6796181
195	0x3d69dc5f	0.057094928
196	0x3f1a4178	0.6025615
197	0xc047da9c	-3.1227179
198	0x3f3bd2eb	0.7336871
199	0xbd919b75	-0.07109729
200	0x3ea8f00c	0.3299564
201	0xc0434333	-3.0509765
202	0xc097b953	-4.7413726
203	0xbef4eb9b	-0.47836003
204	0xbf6d339e	-0.92656887
205	0xbd02bc28	-0.03191772
206	0xbe4fac9b	-0.20280688
207	0x3d79a93c	0.06095241
208	0x3d8f18d2	0.06987156
209	0x3ee495f1	0.44645646
210	0xbc69544f	-0.014241292
211	0xbe6c5e43	-0.23082833
212	0xbd6d8b52	-0.057994194
213	0x3ebe6300	0.37184906
214	0xbe2facc6	-0.17155752
215	0xc01a9c93	-2.4158065
216	0xbeb28298	-0.3486526
217	0x3e9d5a0b	0.3073276
218	0x3ea016e7	0.31267473
219	0xbf1597b3	-0.584346
220	0x3e042d5d	0.1290793
221	0xbf98ba4d	-1.1931854
222	0xbfacab63	-1.3489803
223	0xbfbbf56d	-1.4684273
224	0x3cde1c15	0.027113
225	0xbfbc4aef	-1.4710368
226	0xbf11ef01	-0.57005316
227	0xbeda2397	-0.42605278
228	0x3cb24379	0.02176069
229	0xbfd968e6	-1.6985137
230	0x3d087fb2	0.033324905
231	0x3dc7f403	0.097633384
232	0x3e67fd64	0.22655255
233	0xbe5da692	-0.21645573
234	0xc0728c1d	-3.7898018
235	0x3dceee27	0.10104018
236	0xc00dd437	-2.2160776
237	0xbe4e9b0a	-0.2017633
238	0xbf422cac	-0.75849414
239	0x3e5bfab7	0.21482359
240	0xbd654036	-0.05596944
241	0xbfcb65a9	-1.5890399
242	0xc019848a	-2.3987145
243	0x3ea5720d	0.32313576
244	0xbfcaf641	-1.5856401
245	0x3dc7fdb4	0.09765187
246	0x3efa987f	0.4894447
247	0x3eecb78a	0.4623378
248	0x3e77eab6	0.24210629
249	0x3eb37266	0.35048217
250	0xbea6b194	-0.32557356
251	0x3daf64fd	0.08564184
252	0x3e65a6ae	0.22426865
253	0xbed2d0e0	-0.41174984
254	0xbdc450d5	-0.0958573
255	0x3eb990ad	0.3624319

arith.constant2 f4 [4]
0	0x3f204979	0.6261211
1	0x3ed72091	0.42017034
2	0xbe502fbc	-0.20330709
3	0xbfa0612b	-1.2529653

sequential_1/dense_1_2/BiasAdd/ReadVariableOp f4 [64]
0	0x3f5e1f81	0.8676682
1	0x3f18815f	0.59572405
2	0xbff0b1f7	-1.880431
3	0x3f0ac780	0.5421066
4	0x3f22df7d	0.63622266
5	0xbe9314ed	-0.28726903
6	0xbed6eb3a	-0.4197634
7	0x3e564b0a	0.20927063
8	0xbde83743	-0.11338665
9	0x3daa1b90	0.083060384
10	0x3ec86ddd	0.3914632
11	0x3f64401e	0.89160335
12	0x3e01378c	0.12618846
13	0x3e638860	0.22219992
14	0x3f6e55f6	0.93099916
15	0xbb920b76	-0.0044569327
16	0x3f5bee4f	0.85910505
17	0x3f18e472	0.5972358
18	0xbeef28a8	-0.46710706
19	0x3f337660	0.701025
20	0xbd7fae61	-0.06242216
21	0x3ed87127	0.42273828
22	0x3e43b88d	0.1911337
23	0x3eec40e3	0.46143255
24	0x3fac6cbc	1.3470683
25	0x3f217991	0.6307612
26	0xbf5eae20	-0.86984444
27	0x3f25c242	0.6474954
28	0x3e5f6b53	0.21818285
29	0x3e47e4f8	0.19520938
30	0xbf9476df	-1.1598777
31	0x3d4f66f0	0.05063528
32	0x3f6601a7	0.8984627
33	0x3f164c5e	0.5871028
34	0x3edd2ea4	0.43199646
35	0x3f5445ce	0.82919014
36	0x3f56bb43	0.8387949
37	0x3f49f3a7	0.7888741
38	0x3f666fd0	0.9001436
39	0x3fa6ea52	1.3040259
40	0x3f30c6f0	0.69053555
41	0x3f174925	0.59095985
42	0x3f9c0f04	1.2192082
43	0xb93ebeb4	-0.00018190854
44	0xbd2f2f8d	-0.042769957
45	0xbf0ae03b	-0.542484
46	0xbf0764c7	-0.5288815
47	0xbe937e86	-0.28807467
48	0x3e9a4486	0.30130404
49	0xbfac851a	-1.3478119
50	0x3e8ac038	0.27099776
51	0xbf6be8f8	-0.9215236
52	0xbf833f19	-1.0253631
53	0x3f2c9d20	0.67427254
54	0x3f34ad75	0.70577174
55	0xbc1ee4ce	-0.009698106
56	0x3f149f7b	0.5805585
57	0x3e3bdbc4	0.18345553
58	0xbfa0cc4c	-1.2562346
59	0xbddbb768	-0.10728341
60	0x3e85d7c6	0.26141185
61	0x3ed0fcaf	0.40817782
62	0x3ebacda4	0.36485016
63	0x3eb9edee	0.36314338

sequential_1/dense_1/BiasAdd/ReadVariableOp f4 [128]
0	0xbfd4b421	-1.6617471
1	0xbf5f0acd	-0.87125856
2	0xbf177536	-0.59163225
3	0xbf3caf97	-0.7370543
4	0xbefa6d4c	-0.48911512
5	0xbfcbc918	-1.5920744
6	0xbf3fb2ae	-0.7488202
7	0xbf1b38fa	-0.60633814
8	0xbf67ed51	-0.9059649
9	0xbfe5d33c	-1.7955089
10	0xbf7a18fc	-0.97694373
11	0xbff785ee	-1.9337747
12	0xbf8e4271	-1.1114026
13	0xbf29963c	-0.66244864
14	0xbf313ffe	-0.6923827
15	0xbf7f88fa	-0.99818385
16	0xbf6e019e	-0.9297122
17	0xbef8cdc9	-0.48594502
18	0xbf77994a	-0.96718276
19	0xbf9be1d2	-1.217829
20	0xbf9afe0e	-1.2108781
21	0xbf000c4f	-0.5001878
22	0xbfad7748	-1.3552027
23	0xbfa12a7a	-1.2591088
24	0xbfcc3741	-1.5954362
25	0xbf6b4047	-0.91894954
26	0xbfd73320	-1.6812477
27	0xbf0c243e	-0.547428
28	0xbfb4b1e3	-1.4116787
29	0xbf67cb47	-0.9054455
30	0xbe937fd6	-0.2880847
31	0xbf28ebb3	-0.6598465
32	0xbfb3550e	-1.4010332
33	0xbff25dd5	-1.8934885
34	0xbf8e91ac	-1.1138206
35	0xbf947b6c	-1.1600165
36	0xbf283f20	-0.6572132
37	0xbff1bc40	-1.8885574
38	0xbf58aa69	-0.84635025
39	0xbf959d20	-1.1688576
40	0xbf3de434	-0.74176335
41	0xbf8f8134	-1.1211305
42	0xbf783568	-0.9695649
43	0xbf4a425d	-0.7900751
44	0xbf783ead	-0.96970636
45	0xbf5c0bfc	-0.85955787
46	0xbfa6bba8	-1.3026018
47	0xbf16e288	-0.5893941
48	0xbf9dae4c	-1.2318816
49	0xbf12388b	-0.5711753
50	0xbf8183dc	-1.0118365
51	0xbf9ad56b	-1.209638
52	0xbf811bf7	-1.0086659
53	0xbf846106	-1.0342109
54	0xbf82123c	-1.0161815
55	0xbf1a3407	-0.6023564
56	0xbf6b7790	-0.9197931
57	0xbf848382	-1.0352633
58	0xbe93d86d	-0.28876057
59	0xbf34f06c	-0.70679355
60	0xbf8c446a	-1.0958378
61	0xbf7e3da1	-0.9931279
62	0xbf8d00f4	-1.1015916
63	0xbf704123	-0.9384939
64	0xbfa5f80e	-1.2966325
65	0xbfb9043f	-1.4454421
66	0xbf9a46ca	-1.2052853
67	0xbecc98d3	-0.39960346
68	0xbf263e2e	-0.6493863
69	0xbf2cdb48	-0.67522097
70	0xbed5ea0c	-0.41780126
71	0xbf92904f	-1.145029
72	0xbf910647	-1.1330041
73	0xbf96ed6b	-1.1791204
74	0xbf188bd8	-0.59588385
75	0xbe4606b4	-0.19338495
76	0xbf86ce3c	-1.0531688
77	0xbeed52d9	-0.4635227
78	0xbf4dba47	-0.8036236
79	0xbf804aab	-1.0022787
80	0xbee045b6	-0.43803185
81	0xbfb3c672	-1.4044936
82	0xbf1bb32e	-0.6082028
83	0xbf89d4e2	-1.0768092
84	0xbf72c478	-0.9483104
85	0xbf450bd6	-0.76971185
86	0xbfa26a4a	-1.2688687
87	0xbf94bc1e	-1.1619909
88	0xbf013f6f	-0.50487417
89	0xbf2a6c51	-0.6657153
90	0xbf710997	-0.9415526
91	0xbf84c834	-1.0373597
92	0xbf416b5c	-0.7555444
93	0xbfa3cdab	-1.279714
94	0xbf67f7ec	-0.90612674
95	0xbfea1641	-1.8288041
96	0xbf71df34	-0.94481206
97	0xbf93ed35	-1.1556765
98	0xbf3a6e80	-0.7282486
99	0xbf5742e6	-0.84086454
100	0xbf7007a4	-0.9376166
101	0xbf3f5435	-0.74737865
102	0xbf86942f	-1.0513972
103	0xbf24cd7c	-0.64376044
104	0xbf1e565d	-0.6185053
105	0xbe7e9468	-0.248613
106	0xbfcfc4ff	-1.6231993
107	0xbf3014fd	-0.68782026
108	0xbefb9cf7	-0.49143192
109	0xbff6ef75	-1.9291826
110	0xbf95cbf7	-1.170287
111	0xbf3a852e	-0.72859466
112	0xbf6f9819	-0.9359146
113	0xbfae782f	-1.3630427
114	0xbf3f7ecf	-0.7480287
115	0xbf2e62f6	-0.6811975
116	0xc003fb0c	-2.0621977
117	0xbf205bfb	-0.6264035
118	0xbf22b9df	-0.63564867
119	0xbfc15405	-1.5103766
120	0xbdf2f6d4	-0.11863485
121	0xbf5ab466	-0.85431516
122	0xbf65506f	-0.89575857
123	0xbecd721e	-0.40126127
124	0xbf79af7a	-0.9753338
125	0xbf362a73	-0.7115852
126	0xbf8e3a4b	-1.111154
127	0xbf814401	-1.0098878

sequential_1/dense_1/MatMul f4 [128, 23]
0	0xbc4cd8b0	-0.012502834
1	0xbe65f18e	-0.22455427
2	0x3d970e03	0.073757194
3	0x3d820033	0.06347694
4	0x3e25b6e7	0.16183053
5	0xbf2b5adc	-0.66935515
6	0x3e5938e1	0.21213104
7	0x3e46a051	0.19397093
8	0x3c649d88	0.013953574
9	0x3ed41e6e	0.41429466
10	0x3ddaaf80	0.10678005
11	0xbe43b06c	-0.19110268
12	0xbc46a5d8	-0.012124501
13	0x3e9a0772	0.30083805
14	0x3d3ceeec	0.04612629
15	0x3f3dfa92	0.74210465
16	0xbd201b23	-0.03908838
17	0x3e06f910	0.13180947
18	0x3e3984b0	0.18117023
19	0x3e290e6a	0.16509405
20	0xbf806763	-1.0031551
21	0xc0048bfe	-2.0710444
22	0xbdc6160c	-0.09672174
23	0xbd8d9984	-0.069140464
24	0xbc928903	-0.017887598
25	0x3dd3225f	0.1030929
26	0x3e376ba9	0.17912163
27	0x3e39b72b	0.1813628
28	0x3eb52bb0	0.35384893
29	0x3e30e05d	0.17273088
30	0x3c5eb348	0.013592549
31	0x3d65db0c	0.056117103
32	0x3f179d61	0.59224516
33	0xbd3d8208	-0.046266586
34	0xbd4dc582	-0.050237186
35	0x3d9e078e	0.07716285
36	0x3f58fc05	0.8475955
37	0xbf481df4	-0.78170705
38	0x3d92e814	0.07173172
39	0x3def8f58	0.116972625
40	0x3c437bd8	0.011931382
41	0xbd42f042	-0.04759241
42	0x3de3077a	0.110854104
43	0xbf97197e	-1.1804655
44	0xbfe74eaa	-1.8070881
45	0xbd10fc70	-0.035396993
46	0x3dce237d	0.100653626
47	0x3ea72cb3	0.3265129
48	0x3e837471	0.25674775
49	0x3ec028b9	0.3753107
50	0x3e2c831c	0.1684689
51	0x3f1e62e5	0.6186965
52	0x3c740e51	0.014895991
53	0xbe72b5e9	-0.23702206
54	0xbe97619d	-0.2956666
55	0x3ea4403e	0.32080263
56	0xbe4c5f26	-0.19958171
57	0x3f29c52a	0.66316473
58	0x3c06a348	0.00821764
59	0x3f03b2d5	0.5144475
60	0xbea5c099	-0.32373503
61	0x3cb1138e	0.02161577
62	0xbe7406df	-0.23830746
63	0xbebe881e	-0.37213224
64	0x3ea86d96	0.32896107
65	0xbd59be78	-0.05316016
66	0xbfa52050	-1.2900486
67	0xbf3f34d2	-0.7468997
68	0x3d975fb0	0.07391298
69	0x3da6f436	0.08152048
70	0xbd62d13b	-0.05537532
71	0xbcb05fdc	-0.021530084
72	0x3e504548	0.20338929
73	0x3e9b2063	0.30298147
74	0x3efb79a2	0.49116236
75	0x3e127899	0.14303817
76	0x3eae2a50	0.34016657
77	0xbcde51fd	-0.027138704
78	0x3e15913d	0.14606185
79	0xbd36e363	-0.044650447
80	0xbd989376	-0.07450001
81	0x3dd9f2da	0.106420234
82	0x3e65cc5e	0.22441241
83	0x3dc32e39	0.09530301
84	0xbd21b7a5	-0.039481778
85	0x3de7d002	0.11318971
86	0xbe2c713e	-0.16840073
87	0x3e378700	0.17922592
88	0x3dc2d3be	0.09513043
89	0xbfb9b4e7	-1.4508332
90	0xbfe1159d	-1.7584721
91	0xbe190603	-0.149437
92	0x3d20ac03	0.039226543
93	0xbe37c513	-0.17946272
94	0x3e25dec7	0.16198264
95	0xbe7deae8	-0.24796641
96	0xbdf4e618	-0.119579494
97	0x3eca1899	0.39471892
98	0xbfe56f9a	-1.7924683
99	0x3d38c679	0.045111153
100	0x3eadf98a	0.33979446
101	0x3da43a6e	0.08018957
102	0xbeb03c9f	-0.3442125
103	0xbcc1b367	-0.023645116
104	0x3e3e95f1	0.18611886
105	0x3f22ea18	0.6363845
106	0xbf14cc91	-0.58124644
107	0x3ec85283	0.3912545
108	0x3eb861c2	0.36012083
109	0x3e0a6edd	0.13518853
110	0x3ef392f4	0.47573054
111	0xbdbb5fb0	-0.0914911
112	0xbdbdcfda	-0.0926816
113	0x3c7bdb2d	0.01537208
114	0xbd830d8e	-0.0639907
115	0x3de964d4	0.113961846
116	0x3ecb2821	0.39679053
117	0xbdf2d7d1	-0.1185757
118	0x3eb726cf	0.35771796
119	0x3d898f1c	0.06716749
120	0xbd69220f	-0.056917246
121	0xbe812671	-0.2522464
122	0xbd5fafde	-0.05461108
123	0x3aa51c16	0.0012596871
124	0x3e9f7530	0.31144094
125	0x3d0da776	0.03458353
126	0xbea26dc2	-0.31724364
127	0x3c9927de	0.018695768
128	0x3e521499	0.2051567
129	0xbe8fa5e5	-0.28056255
130	0x3f17c3df	0.5928325
131	0xbd86a429	-0.0657428
132	0xbd24833f	-0.04016423
133	0x3e1430d1	0.14471747
134	0xbc906fed	-0.017631495
135	0x3f4c3f18	0.79783773
136	0xbf89c084	-1.0761876
137	0x3ce99288	0.028512254
138	0xbd80005e	-0.0625007
139	0xbf98ae99	-1.1928283
140	0x3da339b6	0.07969992
141	0xbe4cd77c	-0.20004076
142	0x3eb94002	0.36181647
143	0xbea2362f	-0.31681964
144	0x3dd8795f	0.10570025
145	0x3e932fd2	0.28747422
146	0x3da137f7	0.078720026
147	0x3d9cd155	0.076571144
148	0x3e6a967a	0.22908965
149	0xbed5389d	-0.41644755
150	0xbd713415	-0.05888756
151	0xbe805fdb	-0.25073132
152	0x3e3c7995	0.18405755
153	0xbf9cdfe6	-1.2255828
154	0xbde38614	-0.11109558
155	0xbe145b6d	-0.14488001
156	0xbde1a90e	-0.11018573
157	0xbdfef393	-0.12448802
158	0xbeaaf0d5	-0.33386865
159	0x3da6fbd8	0.08153504
160	0x3e121ac2	0.1426802
161	0x3f1344b1	0.5752669
162	0x3f35a2b8	0.70951414
163	0x3e4d6ace	0.20060274
164	0xbf4e6864	-0.8062804
165	0x3e2c1942	0.1680651
166	0x3ea73144	0.32654774
167	0x3f682072	0.9067451
168	0x3dbfe59b	0.09369966
169	0xbe09ee12	-0.13469723
170	0xbd685548	-0.056721956
171	0x3e3d54f6	0.18489441
172	0xbf2fcc49	-0.6867109
173	0x3e066024	0.13122612
174	0xbe998c97	-0.29990074
175	0x3e2a28c9	0.16617121
176	0xbf7bc0b3	-0.9834091
177	0xbdc1f883	-0.09471228
178	0x3dc25ad4	0.0948998
179	0xbdaf0279	-0.085453935
180	0xbbb955b4	-0.0056559686
181	0xbed1fdc3	-0.41013917
182	0xbf2c82f3	-0.6738731
183	0xbdd9fb99	-0.106436916
184	0xbf3699ac	-0.71328235
185	0x3ed80f0d	0.42198983
186	0x3d65ae4a	0.056074418
187	0xbd7b81b7	-0.061403003
188	0xbd17baf3	-0.037043523
189	0x3ef21de4	0.4728843
190	0xc0098338	-2.148634
191	0xbf043022	-0.51635945
192	0x3dace405	0.08441929
193	0xbe2c59a9	-0.16831078
194	0x3ed571e5	0.41688457
195	0x3f4b4133	0.7939636
196	0x3da8e1c8	0.08246189
197	0x3f4c4a26	0.7980064
198	0xbee9c767	-0.45659944
199	0x3e5d287b	0.21597473
200	0x3ccfa5ce	0.025347617
201	0x3e3a6a47	0.18204604
202	0xbd5eb947	-0.054375913
203	0xbd76e1b2	-0.060273834
204	0x3daa805a	0.08325262
205	0xbdb00df3	-0.085964106
206	0x3dcd8954	0.10035959
207	0x3e86a053	0.26294193
208	0xbd378494	-0.04480417
209	0x3df4d143	0.11953976
210	0x3dcda0ad	0.10040412
211	0x3dac9390	0.08426583
212	0xbfea8a1e	-1.83234
213	0xbc949f75	-0.018142441
214	0xbd06ab63	-0.03287829
215	0x3d31e03b	0.043426733
216	0x3ca04b50	0.019567162
217	0xbc19a455	-0.009377559
218	0x3da46d22	0.08028628
219	0x3dfce318	0.12348002
220	0xbfd57c21	-1.6678506
221	0x3c681686	0.014165526
222	0x3cb8f406	0.022577297
223	0xbd37df26	-0.044890545
224	0x3e1cd68a	0.15316215
225	0x3c25bd89	0.0101159895
226	0xbc3e0c0a	-0.01159955
227	0xbe87b0e0	-0.26502132
228	0x3e215f24	0.1575895
229	0xbe4b63ee	-0.19862339
230	0xbf5ab973	-0.85439223
231	0xbf93451d	-1.1505467
232	0x3e14a1cb	0.14514844
233	0xb9b4b76e	-0.0003446894
234	0x3d3bf5c2	0.04588867
235	0xbd8ecbdf	-0.06972479
236	0xbdec53bc	-0.115394086
237	0xbec57dc0	-0.38572502
238	0x3d43209e	0.047638528
239	0xb78dfa74	-1.6925136e-05
240	0xbc77e189	-0.015129455
241	0xbd4d2756	-0.05008634
242	0x3e2dde6f	0.16979383
243	0xbdb2dac7	-0.08733135
244	0x3c768985	0.015047436
245	0xbd2ceec5	-0.042219896
246	0xbdecee9c	-0.115689486
247	0x3de199a1	0.110156305
248	0x3ea394cd	0.31949463
249	0x3ef7f0ef	0.48426005
250	0x3e95f1bf	0.29286
251	0x3f5d6e29	0.86496216
252	0xbda54c4e	-0.080711946
253	0x3ec23587	0.37931463
254	0xbce73475	-0.028223256
255	0x3e1f0df2	0.15532663
