maalicious/phishing_detection.tflite (tflite, 48152 bytes, 5 tensors)

arith.constant f4 [1, 64]
0.112072945 -0.086111866 -0.039416395 -0.20376234 -0.17992139 0.1923726 -0.23804802 0.18445587
-0.085481755 -0.22725956 0.20161586 -0.10178554 -0.1312003 0.1697457 -0.14695032 -0.2419371
-0.1499479 0.14639477 0.22859788 -0.119687036 0.5059878 -0.56642133 0.16977406 -0.27205572
-0.16702978 -0.23228018 -0.116279535 -0.0711685 0.09561028 0.23647666 0.35833675 0.083850555
-0.09502936 0.40259665 0.092752986 -0.5122989 -0.054082982 -0.09824536 -0.22237669 0.1334074
0.13221817 -0.21089518 -0.15716542 0.17997894 -0.10356972 0.38516644 0.11498421 0.27879065
-0.11155436 0.23367156 -0.1508748 0.101256095 -0.045583986 0.13217755 0.09530931 0.07916455
0.1363383 0.10928824 -0.067186944 0.11845761 -0.07925454 0.17326127 0.07319785 0.09674971
00000000: 8086 e53d 6b5b b0bd 1673 21bd 13a7 50be
00000010: 503d 38be 53fd 443e dcc2 73be 00e2 3c3e
00000020: 0f11 afbd bbb6 68be 6374 4e3e f074 d0bd
00000030: 5f59 06be d1d1 2d3e 257a 16be 5cbe 77be
00000040: f18b 19be 83e8 153e 9015 6a3e 7a1e f5bd
00000050: 6b88 013f fd00 11bf 40d9 2d3e e34a 8bbe
00000060: db09 2bbe dbda 6dbe f723 eebd cac0 91bd
00000070: 53cf c33d f026 723e ea77 b73e d7b9 ab3d
00000080: c19e c2bd 2621 ce3e 47f5 bd3d 0526 03bf
00000090: 1e86 5dbd dd34 c9bd b7b6 63be f39b 083e
000000a0: 3364 073e e8f4 57be f9ef 20be 664c 383e
000000b0: 5d1c d4bd 8934 c53e d77c eb3d a6bd 8e3e
000000c0: 9d76 e4bd 9947 6f3e ec7e 1abe 5b5f cf3d
000000d0: 46b6 3abd 8d59 073e 8731 c33d 0621 a23d
000000e0: 449c 0b3e 83d2 df3d 4f99 89bd e799 f23d
000000f0: 3450 a2bd 676b 313e c1e8 953d b624 c63d

arith.constant1 f4 [64, 128]
-0.009162 -0.86890346 0.30945027 -0.06601561 0.061967053 0.11927424 -0.09969675 -0.37402505
0.21666807 0.67169297 -0.05452458 -0.18246089 -1.4210573 0.1568232 0.2602273 -0.06825053
-5.033618 0.4734308 -1.3576156 0.024955284 0.1609021 0.08669325 -3.2969136 -1.9074868
0.107363984 0.106625624 0.21354015 -0.27813476 -1.4736342 -0.06820513 -0.28565443 0.20801717
1.7670956 -1.7765 -1.8056444 -0.66778994 -0.22885753 -0.66863143 -2.225021 0.50787777
0.10209364 -1.7369334 -1.2986954 0.113201015 0.1092442 -0.4955528 -0.7972915 0.7483097
0.10776909 -1.4506744 -0.00044913637 -2.277849 0.0061724437 -0.07099381 0.28544724 -0.0011142608
0.48018178 0.50883305 0.23173621 0.0941083 0.9652151 -0.25863302 0.0297973 -1.3637809
0.18806857 -1.8109291 0.24162593 0.1942447 0.22549188 -2.2226477 -1.9338703 -0.0897227
0.20703107 -0.12519895 -0.13481253 -1.5210131 0.10758706 0.25062865 -1.873492 -1.7076365
-4.7695537 0.19171083 -0.60266066 0.2877414 0.06777431 0.8206793 -0.74092305 0.19872448
-0.35957432 0.40278482 -0.10671847 -0.88258946 -2.8834598 0.08215791 -0.1368261 -1.6045538
0.4215492 -1.4890916 -2.2935226 -0.0933725 -0.14804259 0.24198146 0.30370483 0.5024617
-0.021814689 -1.466468 -1.1185174 -0.02162593 -0.34146082 -1.3646334 -0.005770934 0.1729368
0.17906612 0.050693464 0.80289805 -0.41722202 0.3226343 0.037698664 0.29268253 0.14657386
0.506166 -0.11085221 -0.4243095 -0.16564515 -0.5373776 0.26565507 0.19633189 0.32622454
-0.19058403 0.072074726 0.38983175 -0.959892 0.046524867 0.40976897 0.33466014 -0.33564076
0.019336058 -0.7243261 -0.48273626 0.1281031 0.20224926 0.06680806 0.2440769 -0.044474877
1.1004362 0.12519562 -0.21529073 -0.13830285 0.21977222 -1.3772825 0.07603664 -0.10820873
-0.8736937 -3.3983037 0.6850163 0.057157036 -0.27834472 -0.4316139 0.12144583 0.12345015
-1.2090733 -0.08101797 -1.0058979 -1.0398369 -0.6737372 -0.46687075 0.18176843 -3.724594
-0.57169795 0.33261493 0.37717178 0.06951651 0.73872113 0.23674087 0.23838365 0.13416669
-0.18755603 0.94121057 -1.6356692 0.2526011 0.3840078 -0.18854436 -0.3100009 0.027980067
-0.06863712 0.41549325 -0.2632837 0.08846587 -0.47299397 -0.0425081 -2.222207 0.736134
-0.09350593 -0.031414513 0.6328297 -1.0559354 0.7231572 0.3523384 -0.12998186 0.38476148
0.89595485 0.14873491 -0.33088574 -0.18919587 -1.2859643 -0.08715748 0.30978465 -0.05216493
0.68502796 0.03696923 0.06466896 -0.026713658 0.02709214 -0.07294758 -0.20890206 0.29870617
0.54456025 0.31378785 0.44583818 0.02642985 0.17184524 -0.025400223 -1.6763904 -0.23939341
-0.1868804 0.046944525 0.070140205 -0.6214438 -0.09662106 -0.11247086 -0.10554891 0.48767942
0.23537652 0.11123419 0.3548778 -0.11044414 -0.7510255 0.67953503 0.4155159 0.2920358
0.03207594 0.2967435 -0.23089063 -0.50885236 -0.07387827 -0.49941427 0.6028786 -0.4229484
0.73766553 -0.21105067 0.2845919 0.08807449 0.16627014 -0.12864292 -0.09999522 0.35289645
00000000: 371c 16bc 7570 5ebf 4470 9e3e 3133 87bd
00000010: 2ad1 7d3d 0e46 f43d cf2d ccbd 3680 bfbe
00000020: 3cde 5d3e 12f4 2b3f 2a55 5fbd 07d7 3abe
00000030: 35e5 b5bf 4396 203e 833c 853e efc6 8bbd
00000040: 6613 a1c0 8665 f23e 59c6 adbf 066f cc3c
00000050: 85c3 243e 3b8c b13d a200 53c0 8728 f4bf
00000060: a6e1 db3d 895e da3d 45aa 5a3e ae67 8ebe
00000070: 0ca0 bcbf 22af 8bbd 4c41 92be 7402 553e
00000080: 3030 e23f 5a64 e3bf 5b1f e7bf 48f4 2abf
00000090: a159 6abe 6e2b 2bbf be66 0ec0 4704 023f
000000a0: 7816 d13d d553 debf a73b a6bf efd5 e73d
000000b0: 6cbb df3d 19b9 fdbe 4c1b 4cbf 3991 3f3f
000000c0: 0ab6 dc3d b3af b9bf 107a ebb9 47c8 11c0
000000d0: 3642 ca3b 3465 91bd 2426 923e 630c 92ba
000000e0: 63da f53e e242 023f 424c 6d3e dabb c03d
000000f0: 5618 773f 8c6b 84be 7819 f43c 5f90 aebf
00000100: 0c95 403e 86cc e7bf ca6c 773e 15e8 463e
00000110: 58e7 663e dc3f 0ec0 1089 f7bf 89c0 b7bd
00000120: f4ff 533e 2734 00be 4c0c 0abe 8fb0 c2bf
00000130: 9b56 dc3d 6652 803e 96ce efbf d593 dabf
00000140: 2fa0 98c0 d84f 443e f847 1abf d752 933e
00000150: 42cd 8a3d 0a18 523f 22ad 3dbf 6e7e 4b3e
00000160: 201a b8be d039 ce3e 378f dabd 62f1 61bf
00000170: 9b8a 38c0 6842 a83d 241c 0cbe 0562 cdbf
00000180: 4cd5 d73e 8e9a bebf 13c9 12c0 153a bfbd
00000190: 7a98 17be fdc9 773e 337f 9b3e 54a1 003f
000001a0: b8b4 b2bc 39b5 bbbf 942b 8fbf dd28 b1bc
000001b0: f4d3 aebe 4fac aebf 1a1a bdbb 5816 313e
000001c0: 1c5d 373e f3a3 4f3d ba8a 4d3f 209e d5be
000001d0: 5330 a53e ea69 1a3d 7cda 953e 7517 163e
000001e0: 1894 013f 7c06 e3bd 183f d9be e29e 29be
000001f0: 9491 09bf f103 883e 3a0b 493e e706 a73e
00000200: 7628 43be ea9b 933d 0798 c73e 7bbb 75bf
00000210: dc90 3e3d 3dcd d13e 9358 ab3e 1bd9 abbe
00000220: a766 9e3c 6f6d 39bf 3529 f7be 762d 033e
00000230: 6e1a 4f3e aad2 883d 4bef 793e 4a2b 36bd
00000240: 18db 8c3f 4833 003e 2c75 5cbe 439f 0dbe
00000250: f80b 613e cb4a b0bf 19b9 9b3d 8a9c ddbd
00000260: 64aa 5fbf cf7d 59c0 3a5d 2f3f 7f1d 6a3d
00000270: 3383 8ebe 7ffc dcbe 97b8 f83d 6fd3 fc3d
00000280: eac2 9abf c0ec a5bd 43c1 80bf 6019 85bf
00000290: 0b7a 2cbf af09 efbe 8121 3a3e c05f 6ec0
000002a0: cc5a 12bf 814c aa3e a91c c13e ac5e 8e3d
000002b0: d41c 3d3f 336c 723e d81a 743e fe62 093e
000002c0: b00e 40be 2df3 703f 9c5d d1bf ee54 813e
000002d0: ac9c c43e c611 41be 70b8 9ebe 7436 e53c
000002e0: 9e91 8cbd 88bb d43e 1fcd 86be 982d b53d
000002f0: 442c f2be f91c 2ebd a438 0ec0 4773 3c3f
00000300: 0980 bfbd 81ac 00bd 2101 223f e428 87bf
00000310: d520 393f b365 b43e f719 05be 75ff c43e
00000320: 4c5d 653f f74d 183e db69 a9be 90bc 41be
00000330: 7a9a a4bf 9f7f b2bd 189c 9e3e e5aa 55bd
00000340: fe5d 2f3f 0c6d 173d 2971 843d 9ad6 dabc
00000350: 56f0 dd3c 8a65 95bd 6cea 55be 04f0 983e
00000360: 4d68 0b3f cda8 a03e e744 e43e 6a83 d83c
00000370: 33f8 2f3e 2114 d0bc f693 d6bf 8c23 75be
00000380: 935d 3fbe e748 403d aba5 8f3d f116 1fbf
00000390: 43e1 c5bd 1f57 e6bd 072a d8bd 1eb1 f93e
000003a0: 8b06 713e c0ce e33d 8bb2 b53e 8a30 e2bd
000003b0: 3543 40bf 02f6 2d3f 80be d43e b785 953e
000003c0: 1062 033d c4ee 973e 986e 6cbe 2644 02bf
000003d0: 7e4d 97bd 3ab3 ffbe 4056 1a3f b18c d8be
000003e0: a6d7 3c3f ab1d 58be 08b6 913e 6660 b43d
000003f0: b842 2a3e f8ba 03be 4bca ccbd d8ae b43e

sequential_1/dense_1_2/BiasAdd/ReadVariableOp f4 [64]
0.2235909 0.261538 0.48526588 0.42723155 0.8556158 0.135551 0.4119056 0.9564823
0.78528464 -0.028082969 0.62384504 0.493635 0.37676492 -0.22891305 -0.311415 -0.6334759
-0.5743682 0.04223927 0.33213043 0.7701205 0.27045098 0.87337035 0.91198534 0.7858554
-0.61672986 1.2718567 1.1384355 0.5700378 0.7898431 0.35485396 0.6576912 0.6797884
0.6239293 0.79223824 1.1297601 -0.096046835 -1.2810367 0.34932175 -0.7763561 0.10945409
0.23169738 1.3539431 0.5626359 0.7971257 1.1713898 0.37929493 0.71488714 0.5016903
0.6479355 0.4562377 -0.27801645 0.05427994 -0.20036057 0.93183666 0.17664103 1.0902267
1.5234206 0.33154583 0.482181 0.6418552 1.1863121 0.87010765 0.67046434 0.58802223
00000000: 03f5 643e 4fe8 853e c574 f83e 18be da3e
00000010: a309 5b3f e2cd 0a3e 4ae5 d23e 06dc 743f
00000020: 6a08 493f 410e e6bc 4fb4 1f3f babd fc3e
00000030: 55e7 c03e 2f68 6abe c971 9fbe 7a2b 22bf
00000040: cb09 13bf 1603 2d3d 000d aa3e 9e26 453f
00000050: 8d78 8a3e 3395 5f3f df77 693f d22d 493f
00000060: 02e2 1dbf 33cc a23f 41b8 913f ffed 113f
00000070: 2833 4a3f 6baf b53e 735e 283f 9d06 2e3f
00000080: d5b9 1f3f 20d0 4a3f fb9b 903f 34b4 c4bd
00000090: 03f9 a3bf 4dda b23e 46bf 46bf 7729 e03d
000000a0: 1442 6d3e 024e ad3f e808 103f 6e10 4c3f
000000b0: 1af0 953f f232 c23e d802 373f c76e 003f
000000c0: 1adf 253f fd97 e93e 2c58 8ebe a454 5e3d
000000d0: 522b 4dbe d98c 6e3f 63e1 343e 8c8c 8b3f
000000e0: 72ff c23f 60c0 a93e 6ee0 f63e 9f50 243f
000000f0: 13d9 973f 60bf 5e3f 8da3 2b3f a088 163f

sequential_1/dense_1/BiasAdd/ReadVariableOp f4 [128]
-0.65940833 -1.5427686 -0.8319887 -0.765936 -0.5154637 -0.21549965 -0.35751253 -0.8971775
-1.2916794 -0.69851327 -0.8566419 -0.7249626 -1.2399886 -0.5413727 -0.9254805 -0.5651357
-0.5671663 -1.2713048 -1.4114364 -1.7204577 -0.17324236 -0.589222 -1.310025 -1.007123
-0.12371679 -1.2779387 -0.9630177 -0.56202686 -2.3907063 -0.816956 -0.6599324 -2.28884
-0.50236195 -0.94123113 -1.8299689 -1.331161 -0.8821413 -1.8826388 -1.4943541 -1.104671
-0.50341624 -1.3357089 -1.5517608 -0.6308946 -0.53699744 -0.7615139 -1.3618809 -0.9108477
-0.68323064 -1.8864474 -0.9893519 -1.6072485 -0.44831693 -0.6581917 -2.1574948 -0.09031985
-1.4222708 -0.6098828 -0.48921052 -1.2989767 -0.6307246 -0.30896634 -0.14694108 -1.0975308
-0.6131619 -2.2506135 -0.22264694 -0.35794765 -1.1872337 -1.2806537 -1.6122149 -0.93706346
-0.70791423 -0.79847026 -0.6900891 -0.50140816 -0.867295 -0.90880924 -1.1727275 -0.83220243
-0.5781744 -0.65990674 -1.2255213 -0.70563775 -0.617049 -0.20493029 -0.9262572 -1.1328841
-0.49847117 -1.0045866 -1.2901584 -1.129033 -1.1239296 -0.89191693 -0.1493835 -0.9722584
-0.8309373 -0.9057503 -0.75405324 -0.6744517 -1.9797411 -0.81942135 -1.2148604 -1.1843889
-0.4501974 -1.0718517 -1.2399219 -0.5622809 -0.41097972 -1.0991621 -1.0024086 -0.7638295
0.033784788 -0.81142116 -1.3904976 -1.4879296 -0.51641667 -0.8224688 -1.2709907 -0.6294168
-0.6802793 -0.2144462 -0.86082757 -1.6453594 -0.19962806 -0.39070007 -1.3838911 -0.82647103
00000000: fcce 28bf 7179 c5bf 36fd 54bf 6214 44bf
00000010: 6ef5 03bf f1ab 5cbe e20b b7be 6dad 65bf
00000020: c055 a5bf c4d1 32bf e24c 5bbf 2697 39bf
00000030: f2b7 9ebf 6797 0abf 4aec 6cbf bcac 10bf
00000040: d031 11bf 1eba a2bf f3a9 b4bf f537 dcbf
00000050: 7266 31be 41d7 16bf e6ae a7bf 68e9 80bf
00000060: 3a5f fdbd 7f93 a3bf 5488 76bf fee0 0fbf
00000070: 5501 19c0 0724 51bf 54f1 28bf 5b7c 12c0
00000080: cb9a 00bf 86f4 70bf 6c3c eabf 7c63 aabf
00000090: 03d4 61bf 4ffa f0bf ff46 bfbf dc65 8dbf
000000a0: e3df 00bf 82f8 aabf 19a0 c6bf 4f82 21bf
000000b0: aa78 09bf 93f2 42bf 1d52 aebf 512d 69bf
000000c0: 34e8 2ebf 1c77 f1bf 2b46 7dbf 52ba cdbf
000000d0: cc89 e5be 407f 28bf 6514 0ac0 9df9 b8bd
000000e0: f80c b6bf 4721 1cbf cd79 fabe de44 a6bf
000000f0: 2b77 21bf d630 9ebe b977 16be e47b 8cbf
00000100: 2ef8 1cbf 0d0a 10c0 8ffd 63be ea44 b7be
00000110: 46f7 97bf 76ec a3bf 0f5d cebf 64e3 6fbf
00000120: de39 35bf 8c68 4cbf aea9 30bf 495c 00bf
00000130: 0c07 5ebf b9a7 68bf ef1b 96bf 380b 55bf
00000140: 3d03 14bf a6ef 28bf e2dd 9cbf ada4 34bf
00000150: ecf6 1dbf 3fd9 51be 311f 6dbf 5902 91bf
00000160: 9d37 ffbe 4b96 80bf e923 a5bf 2784 90bf
00000170: eddc 8fbf ab54 64bf fdf7 18be ede5 78bf
00000180: 4fb8 54bf 40df 67bf a209 41bf dea8 2cbf
00000190: 2868 fdbf 99c5 51bf 8c80 9bbf 0e9a 97bf
000001a0: 4680 e6be 7032 89bf c3b5 9ebf a4f1 0fbf
000001b0: ef6b d2be 58b1 8cbf ed4e 80bf 558a 43bf
000001c0: eb61 0a3d 4cb9 4fbf d3fb b1bf 7a74 bebf
000001d0: e233 04bf 518d 52bf d3af a2bf 7621 21bf
000001e0: c926 2ebf c997 5bbe 325f 5cbf 239b d2bf
000001f0: 4c6b 4cbe d709 c8be 5823 b1bf 9b93 53bf

sequential_1/dense_1/MatMul f4 [128, 24]
-0.459085 0.50175655 0.2300344 -0.24897079 -0.03807735 0.4513271 -0.34387544 -0.30177134
-0.25545734 -0.51755154 -0.20413783 -1.1273633 -0.25773934 0.39915556 -0.36133987 0.5007162
0.12439438 0.17130376 0.2866807 -0.114955775 -0.04754456 -0.2828707 0.12727642 0.15022966
0.2644802 -0.78113127 0.13661776 -0.052067265 0.18842396 -0.51675695 0.80112076 0.9054217
0.06400789 0.5224668 -0.40995386 0.11666202 -0.21207504 -0.48747373 -0.021381047 1.023206
-0.28886405 0.13132256 0.0028120377 -0.059854593 0.04565762 -0.22819726 -0.5402928 1.4481415
0.65454394 -1.91197 -0.06517054 0.48759526 0.21219607 -0.24205428 -0.059022695 0.029370742
-0.06431436 -0.048033673 0.35995638 -0.45614088 -0.0063549895 0.097587995 -0.14342636 -0.7916179
-0.004946096 -0.08097422 -0.11051461 -0.19642608 -0.4359172 0.61069167 0.3691456 1.0300534
-0.7085535 -1.6927384 -0.1534966 -0.6362166 -0.10697587 -0.17357214 0.36759567 1.0390068
-0.038317457 -0.28303677 -0.15936989 0.08613055 -0.080060035 -0.08193755 -0.16068707 1.4057878
-0.17325687 -0.11201941 -0.07259918 -0.001859794 0.27432406 -0.49899763 -0.3598723 0.7882384
-0.3793398 -0.0018864728 -0.16844545 0.32614505 1.1322563 0.85412663 -0.90042925 0.36913687
0.46177167 -0.28108653 -0.82169914 0.37871644 -0.3294372 0.09498536 0.4414801 -0.2416648
0.09338719 0.30589762 0.13646159 0.5488121 -0.29269898 0.40441254 0.40173662 0.2007501
-2.2345946 -0.07725689 0.20168513 -0.012592108 -0.34051847 0.10338294 0.6104955 1.9478176
0.029335715 0.020614954 -0.09432849 0.047322415 0.015452649 -1.3022554 -0.66220766 0.13612655
0.12767039 -0.44341403 0.10901048 -0.03247392 0.08329698 -0.038068946 -0.24448544 0.25350207
0.98040617 0.2835839 0.31532967 -0.47978023 -0.1697961 0.12200196 2.0353036 -0.67793787
-0.8409353 0.3056844 -0.030313415 -0.28217977 -0.23626916 -0.70238304 0.45322073 0.09860406
-0.103075795 -0.37783286 0.12259226 -0.26321808 0.14391166 -0.1906331 -0.046311334 -0.0073201074
-1.374791 0.18662599 0.21368861 -0.21385302 0.28815562 0.15664926 0.000130253 -1.6415751
-0.038671553 0.049037952 0.81902915 0.6869613 0.14454868 -0.7300297 0.017243413 0.17367917
0.24928454 -0.044835843 0.48304808 0.016058149 0.0896048 0.5579444 -0.24918139 0.79948425
-0.85288435 0.6815162 -0.0049526338 0.14990512 0.27107888 -1.0944158 0.6972097 -0.5670304
0.3171589 -0.22414427 -0.053153574 0.043440066 -0.018877173 -0.014500709 0.3439044 -0.60939604
0.4186253 0.20845062 0.29750887 0.0054777316 -0.27626526 -0.08933768 -0.005398136 1.1461942
-1.6715195 -0.2709903 0.021927154 -0.1547222 -0.080735065 -0.60182756 0.7027976 1.6795017
0.12118874 0.23582484 -0.3180333 0.12684637 0.048090585 -0.2003053 0.26000205 0.7947021
-0.10346975 -0.0051431586 0.052425537 -0.06825168 -0.12690267 0.1469353 -1.0323241 0.87058204
-0.81449217 -1.3397273 -0.101511605 -0.27507702 -0.10896901 0.2511479 0.5476679 -0.32414585
-0.1422752 -0.65499496 -0.42140606 0.42781314 -0.062322885 -0.25678846 -0.14876026 0.9309421
00000000: 300d ebbe 1e73 003f 238e 6b3e 33f2 7ebe
00000010: fff6 1bbd 5814 e73e 7110 b0be c681 9abe
00000020: 4ecb 82be 427e 04bf 8209 51be 714d 90bf
00000030: 69f6 83be 1e5e cc3e 8a01 b9be f02e 003f
00000040: 7bc2 fe3d 416a 2f3e d0c7 923e ef6d ebbd
00000050: 16be 42bd 6ed4 90be c054 023e ced5 193e
00000060: f369 873e 38f8 47bf 87e5 0b3e 7c44 55bd
00000070: 36f2 403e 2f4a 04bf 4016 4d3f b7c9 673f
00000080: 9216 833d 62c0 053f 79e5 d1be 7fec ee3d
00000090: 332a 59be 2896 f9be 4e27 afbc 6af8 823f
000000a0: fde5 93be 6c79 063e 2a4a 383b 172a 75bd
000000b0: 7c03 3b3d 8bac 69be a150 0abf b35c b93f
000000c0: 3190 273f 6fbb f4bf 2278 85bd 16a6 f93e
000000d0: ed49 593e 14dd 77be c8c1 71bd e99a f03c
000000e0: 3fb7 83bd f5be 44bd 344c b83e 4c8b e9be
000000f0: 843d d0bb 37dc c73d 5cde 12be 78a7 4abf
00000100: dc12 a2bb d0d5 a5bd 7c55 e2bd eb23 49be
00000110: 8a30 dfbe 4a56 1c3f a700 bd3e cad8 833f
00000120: c363 35bf a7ab d8bf 362e 1dbe 17df 22bf
00000130: 2a16 dbbd e5bc 31be 8035 bc3e 2dfe 843f
00000140: c4f2 1cbd 32ea 90be dc31 23be 3765 b03d
00000150: 84f6 a3bd e0ce a7bd 278b 24be dbf0 b33f
00000160: 406a 31be 6f6a e5bd e1ae 94bd 55c4 f3ba
00000170: 3474 8c3e 9e7c ffbe 2f41 b8be fec9 493f
00000180: d438 c2be 8643 f7ba f77c 2cbe 7cfc a63e
00000190: c6ed 903f 0ba8 5a3f 8882 66bf 82ff bc3e
000001a0: 566d ec3e 93ea 8fbe e05a 52bf 1fe7 c13e
000001b0: feab a8be af87 c23d ae09 e23e fa76 77be
000001c0: c841 bf3d 9d9e 9c3e 96bc 0b3e f37e 0c3f
000001d0: a4dc 95be 290f cf3e 6cb0 cd3e 6f91 4d3e
000001e0: 9903 0fc0 dc38 9ebd 8c86 4e3e 214f 4ebc
000001f0: 7058 aebe 6fba d33d 6f49 1c3f 1652 f93f
00000200: 7451 f03c b1e0 a83c 4c2f c1bd 26d5 413d
00000210: 1c2d 7d3c 4eb0 a6bf 7186 29bf c264 0b3e
00000220: 07bc 023e 2a07 e3be e340 df3d 6003 05bd
00000230: 9b97 aa3d 2fee 1bbd 645a 7abe 06cb 813e
00000240: e6fb 7a3f e931 913e e472 a13e c1a5 f5be
00000250: 07df 2dbe 2adc f93d 6a42 0240 568d 2dbf
00000260: 8947 57bf aa82 9c3e d753 f8bc de79 90be
00000270: 8bf0 71be 60cf 33bf 8c0c e83e edf0 c93d
00000280: 6719 d3bd 4f73 c1be a711 fb3d 85c4 86be
00000290: 945d 133e 5335 43be f4b0 3dbd 83dd efbb
000002a0: 27f9 afbf e21a 3f3e 30d1 5a3e 49fc 5abe
000002b0: 2289 933e aa68 203e 8694 0839 221f d2bf
000002c0: 1066 1ebd 05dc 483d e5ab 513f b2dc 2f3f
000002d0: 9204 143e 3ae3 3abf 0f42 8d3c f4d8 313e
000002e0: 7244 7f3e caa5 37bd 1452 f73e 618c 833c
000002f0: b982 b73d 72d5 0e3f 6829 7fbe 00ab 4c3f
00000300: a156 5abf d877 2e3f b449 a2bb ba80 193e
00000310: daca 8a3e d115 8cbf 567c 323f e728 11bf
00000320: a762 a23e 1386 65be 90b7 59bd 36ee 313d
00000330: 4da4 9abc 6294 6dbc 3d14 b03e 6101 1cbf
00000340: 0e56 d63e 1474 553e 1553 983e 8b7e b33b
00000350: a472 8dbe acf6 b6bd d9e2 b0bb 7eb6 923f
00000360: 5af4 d5bf 3ebf 8abe 93a0 b33c 7f6f 1ebe
00000370: 6d58 a5bd 5f11 1abf 8bea 333f e9f9 d63f
00000380: cd31 f83d 117c 713e 43d5 a2be 04e4 013e
00000390: a2fa 443d d51c 4dbe fd1e 853e 9971 4b3f
000003a0: f3e7 d3bd f187 a8bb 29bc 563d 89c7 8bbd
000003b0: c6f2 01be 3576 163e 3223 84bf 77de 5e3f
000003c0: 8f82 50bf 2f7c abbf 51e5 cfbd e5d6 8cbe
000003d0: 252b dfbd 7596 803e f733 0c3f 72f6 a5be
000003e0: 97b0 11be c0ad 27bf 89c2 d7be 530a db3e
000003f0: 4846 7fbd c779 83be 9c54 18be 3952 6e3f
