maalicious/phishing_detection.tflite (tflite, 48152 bytes, 5 tensors)

arith.constant f4 [1, 64]
0	0x3d83531c	0.06412336
1	0x3e7738ce	0.24142763
2	0xbe0699c5	-0.13144596
3	0xbe440097	-0.1914085
4	0xbe3e0409	-0.18556227
5	0xbe4f6740	-0.2025423
6	0xbe5386d0	-0.20656896
7	0x3ddae4ce	0.10688172
8	0x3e05956c	0.13045281
9	0x3dc5159f	0.096232645
10	0xbffc4839	-1.9709541
11	0x3e0e573e	0.13900468
12	0xbeaa80ce	-0.33301395
13	0x3e0b7f9c	0.13622898
14	0xbe46ede2	-0.19426683
15	0x3e17ea4e	0.14835474
16	0xbde58a67	-0.11208039
17	0xbe9a1f79	-0.30102137
18	0x3eb5c45a	0.35501367
19	0x3ea91911	0.33026937
20	0xbeb13795	-0.34612718
21	0xbef44c54	-0.47714484
22	0xbec0fda0	-0.376935
23	0x3f1272c4	0.5720637
24	0x3d58976c	0.052878782
25	0xbe4e0d1a	-0.20122185
26	0x3dbd7ecf	0.092527024
27	0x3e013910	0.12619424
28	0xbe535b1c	-0.20640224
29	0x3e873724	0.26409256
30	0x3d7c7f50	0.061644852
31	0xbe2de21b	-0.16980784
32	0xbe1623ae	-0.14662048
33	0x3e7d84dc	0.24757713
34	0xbec8f107	-0.3924639
35	0x3dee3d24	0.116327554
36	0xbe37724f	-0.17914699
37	0xbead6c68	-0.3387177
38	0x3e1bb3e6	0.15205345
39	0xbe10f539	-0.14156045
40	0x3d993126	0.074800774
41	0xc01953c0	-2.3957367
42	0x3e08f692	0.13375309
43	0x3e172e74	0.14763814
44	0xbed57455	-0.41690317
45	0x3df6f547	0.12058502
46	0xbe711cbc	-0.23546118
47	0x3e7e8990	0.24857163
48	0x3d867189	0.06564624
49	0x3dea9dc8	0.11455876
50	0xbf0556f2	-0.52085793
51	0x3eecfa8c	0.46284902
52	0x3d61f286	0.05516293
53	0x3e77f73a	0.24215403
54	0x3d9dac36	0.07698862
55	0x3e89405d	0.26806918
56	0xbe9a0c84	-0.30087674
57	0xbe37007a	-0.17871276
58	0xbe4b31cb	-0.19843213
59	0x3f387f1a	0.7206894
60	0x3ea6747c	0.32510746
61	0xbe33a42e	-0.17543098
62	0xbe826a71	-0.25471833
63	0x3e7c1f0c	0.24621218

arith.constant1 f4 [64, 128]
0	0xbd73b62e	-0.059499912
1	0x3eca4b29	0.39510468
2	0x3c6c516e	0.014423711
3	0x3d3876da	0.04503522
4	0x3e283031	0.16424634
5	0xbdcd9df7	-0.10039895
6	0xbc5a91e8	-0.013340451
7	0xbc036612	-0.008019941
8	0x3e805c3f	0.25070378
9	0x3eeea12a	0.46607333
10	0x3c45b189	0.012066253
11	0xbeb94d4d	-0.36191788
12	0xbe160569	-0.14650501
13	0xbd10c484	-0.035343662
14	0x3db7e76d	0.08979688
15	0x3e94f7ad	0.29095212
16	0xbf562b5f	-0.8365993
17	0x3f00c456	0.50299585
18	0x3ed41223	0.41420087
19	0xbe8db40d	-0.2767643
20	0x3f1fbc9f	0.6239719
21	0x3f04e11b	0.51905984
22	0x3e812957	0.25226852
23	0x3e8d34bb	0.27579293
24	0xbf276960	-0.65395164
25	0xbec343ca	-0.38137656
26	0xbf1e8577	-0.619224
27	0x3e3d4b49	0.1848575
28	0xbeff5c9c	-0.49875343
29	0xbf2123f4	-0.62945485
30	0xbedc8b32	-0.43074948
31	0xbf605bf6	-0.8764032
32	0x3ed30d72	0.41221195
33	0xbdf58fdf	-0.11990332
34	0x3d402792	0.046912737
35	0xbe296003	-0.16540532
36	0xbe8fb407	-0.28067037
37	0x3ecf02c5	0.404318
38	0xbcc3e83f	-0.023914455
39	0xbf03940f	-0.51397794
40	0xbb02a0a2	-0.001993217
41	0xc0209a4f	-2.5094182
42	0xbbbd210f	-0.005771763
43	0x3f1944f5	0.59870845
44	0xbe26ea20	-0.16300249
45	0xbd93a807	-0.07209783
46	0xbd44f7b8	-0.048087806
47	0xbc96e8df	-0.018421588
48	0xbdf48fc9	-0.11941487
49	0x3dc9288f	0.09822189
50	0xbe76098a	-0.24027076
51	0x3ecb9f1b	0.39769825
52	0x3e597e88	0.21239674
53	0xbf5532be	-0.8328055
54	0x3dac5621	0.08414865
55	0x3ec4d460	0.3844328
56	0x3e5099aa	0.20371118
57	0x3d9ed547	0.07755523
58	0x3decaefb	0.115568124
59	0x3daf5312	0.08560766
60	0xbdd0d513	-0.10196891
61	0xc006c4ae	-2.1057544
62	0x3e18d249	0.14923967
63	0xbe67e07b	-0.22644226
64	0xbe5a818f	-0.21338485
65	0x3e31c098	0.17358625
66	0xbe482ed2	-0.1954911
67	0xbf26e16e	-0.6518773
68	0x3e180cb1	0.14848591
69	0xbda8f4e8	-0.08249837
70	0xbd2ab290	-0.041674197
71	0x3cbf0cf0	0.023321599
72	0x3e20fc00	0.1572113
73	0xbd1c537b	-0.03816555
74	0x3e704cc7	0.23466788
75	0x3ea1b1f0	0.31581068
76	0xc02f2bf4	-2.7370577
77	0xbe883670	-0.26604033
78	0x3eaa4fd4	0.3326403
79	0x3f0a1088	0.53931475
80	0xbf14c6db	-0.5811593
81	0x3def6655	0.1168944
82	0xbe01b251	-0.12665679
83	0x3e9904a7	0.29886362
84	0x3e4f4b1f	0.202435
85	0xbe467e28	-0.19384062
86	0xbf2fed97	-0.6872191
87	0xbdb033da	-0.0860364
88	0x3b655802	0.0034995084
89	0x3e03d4a4	0.12874085
90	0x3e957162	0.29188067
91	0x3ea73a36	0.326616
92	0x3dc5e154	0.096621186
93	0x3e998af8	0.29988837
94	0x3ed3e1bc	0.4138316
95	0xbf1ca7b9	-0.61193424
96	0xbee031e2	-0.43788058
97	0xbe258b85	-0.16166504
98	0xbe0506b1	-0.12990834
99	0xbf047dff	-0.51754755
100	0x3e6d385a	0.23166028
101	0x3efcae10	0.4935155
102	0x3f17c861	0.5929013
103	0xbf0e597f	-0.5560531
104	0x3ebb76c5	0.3661405
105	0x3f294aff	0.6613006
106	0x3f1d68fe	0.6148833
107	0x3ea9a164	0.33130944
108	0xbe29203b	-0.16516201
109	0x3e20a5cd	0.15688248
110	0x3f08bef5	0.5341638
111	0xbf85cfb8	-1.0454016
112	0xbfc7f30a	-1.5621045
113	0x3ee28319	0.44240645
114	0xbdd9686f	-0.10615622
115	0x3e012cc5	0.12614734
116	0x3eb9a717	0.36260292
117	0xbc532b6b	-0.01288877
118	0xbd78f871	-0.060783807
119	0xbf0d9562	-0.55306065
120	0x3e361357	0.17780815
121	0x3e61acd2	0.22038582
122	0x3ec0c4fe	0.37650293
123	0xbe3df4cf	-0.18550418
124	0xbdf79748	-0.120894015
125	0x3e8591ef	0.260879
126	0xbea8c504	-0.3296281
127	0x3da5cded	0.08095918
128	0x3e393288	0.18085682
129	0xbe9e5334	-0.30922854
130	0xbeb0ff57	-0.3456981
131	0xbfe972e2	-1.8238184
132	0x3e611d15	0.2198375
133	0xbe9a5d11	-0.3014913
134	0x3e8ce91e	0.27521604
135	0x3d93f8b3	0.0722517
136	0x3dfc1288	0.12308222
137	0xbef320e3	-0.47486028
138	0x3f113b0d	0.5673073
139	0x3eef7ff8	0.4677732
140	0xbef02afb	-0.46907791
141	0xbdd29d88	-0.10283953
142	0x3daf2e8c	0.085538
143	0xbf43faa7	-0.7655434
144	0xbd4e9b19	-0.05044088
145	0x3f890738	1.0705328
146	0xbf0230cb	-0.508557
147	0x3eaa3313	0.33242092
148	0x3f40d88a	0.7533041
149	0x3f908463	1.1290401
150	0x3cb13623	0.02163226
151	0x3dbd8bb6	0.09255163
152	0x3d2130dd	0.03935324
153	0xbfe1731e	-1.7613256
154	0xbfb94e7e	-1.4477079
155	0x3f0781d8	0.529325
156	0xbfa71e90	-1.3056202
157	0xbe6e5c33	-0.23277359
158	0xc0023299	-2.0343382
159	0xbeb78b53	-0.35848483
160	0xbe308ddb	-0.17241614
161	0x3e0a3146	0.13495359
162	0xbece73a3	-0.403226
163	0xbfbf73dd	-1.4957234
164	0x3d12f40c	0.035877272
165	0xbf198846	-0.5997356
166	0x3f009542	0.5022775
167	0xbfc507c2	-1.5392992
168	0x3a5e3124	0.00084759505
169	0xc01a66df	-2.4125288
170	0xbe2e414b	-0.17017095
171	0x3d753722	0.059867032
172	0xbece4b5f	-0.4029188
173	0xbe0cb3ea	-0.13740507
174	0x3eb66b10	0.35628557
175	0x3f2ff4fd	0.687332
176	0x3e1741ed	0.14771242
177	0xbf62a752	-0.8853656
178	0xbe9e3463	-0.30899343
179	0xbe75d379	-0.24006452
180	0x3c812edd	0.015769416
181	0xc017c5d8	-2.3714504
182	0xbd499e04	-0.04922296
183	0xbf8d4b08	-1.1038523
184	0x3e0d9675	0.13826926
185	0x3e537d1b	0.20653193
186	0xbd96c0cc	-0.07360992
187	0x3eb10044	0.34570515
188	0x3e4f5a77	0.20249353
189	0xc0207940	-2.5074005
190	0xbde06bc4	-0.10958055
191	0x3f183713	0.59459037
192	0x3f0ce462	0.55035985
193	0xbe83928e	-0.2569775
194	0xbf012ab3	-0.5045578
195	0xbe21a6cd	-0.15786286
196	0x3e9b4714	0.30327666
197	0x3d106365	0.03525104
198	0xbd8343d4	-0.064094216
199	0x3e2431e6	0.1603466
200	0xbd4fcef2	-0.050734468
201	0xbd499af0	-0.049220026
202	0x3e17a479	0.14808835
203	0xbfc037d0	-1.5017033
204	0xc041bd3e	-3.0271754
205	0x3e32fb23	0.17478614
206	0x3e0ab132	0.13544157
207	0xbdfe7a8b	-0.12425717
208	0x3ebf4a62	0.37361437
209	0xbe57c5e0	-0.21071577
210	0xbcdd0951	-0.026981981
211	0x3f1cda87	0.61270946
212	0x3eb8213a	0.3596285
213	0x3d8cd004	0.06875613
214	0x3ec75277	0.38930103
215	0xbeb3fe51	-0.35154966
216	0x3f052899	0.5201507
217	0xbfaa0229	-1.3281909
218	0x3c59d180	0.013294578
219	0x3e74c8b2	0.23904684
220	0xbe2badb7	-0.16765486
221	0x3d927725	0.07151631
222	0xbe117b0c	-0.14207095
223	0x3f6d72e0	0.9275341
224	0xbe1fcc5b	-0.15605299
225	0xbd0b3913	-0.033989977
226	0x3ecbc941	0.39801982
227	0x3e9aa7ce	0.3020615
228	0xbf3cab85	-0.7369922
229	0x3e40c7b9	0.18826188
230	0x3dbbc830	0.09169042
231	0x3e205b1c	0.15659755
232	0x3fa84587	1.3146218
233	0x3e8f5785	0.2799646
234	0x3f9738d8	1.1814222
235	0x3c5ecd78	0.013598792
236	0x3da19785	0.07890228
237	0xbe1fb964	-0.15598065
238	0x3f284964	0.65736985
239	0xbeaf37fe	-0.34222406
240	0xc04a38a4	-3.159707
241	0xbf86175d	-1.047588
242	0x3eb6c5be	0.3569774
243	0x3e2021c3	0.15637879
244	0xbe8ab7fd	-0.27093497
245	0xc004c7b3	-2.0746887
246	0xbe81b8d8	-0.25336337
247	0x3ee08d1e	0.43857664
248	0xbe0ad540	-0.13557911
249	0x3f3a9b55	0.7289327
250	0xbdf444ee	-0.1192721
251	0x4013369a	2.3002076
252	0x3ec14978	0.37751365
253	0x3e912c79	0.28354242
254	0x3e5532e9	0.20820202
255	0xbf100026	-0.56250226

sequential_1/dense_1_2/BiasAdd/ReadVariableOp f4 [64]
0	0x3c5b2dfd	0.013377664
1	0xbf5c5a56	-0.8607534
2	0xbf2ba6a2	-0.67051136
3	0x3f563f25	0.836901
4	0x3fa660cc	1.299829
5	0x3ef654a0	0.4811144
6	0xbf8a16b6	-1.0788181
7	0x3eb76ea0	0.35826588
8	0x3f3e98c5	0.7445186
9	0x3f685823	0.90759486
10	0x3d9662fb	0.07343098
11	0x3ee1018f	0.43946502
12	0xbf0e36a5	-0.5555213
13	0x3f370721	0.7149525
14	0x3fa1e843	1.2649006
15	0x3f5587ca	0.8341032
16	0xbf826eb1	-1.019003
17	0x3f85e652	1.0460913
18	0x3f0e1408	0.55499315
19	0x3edf6d80	0.4363823
20	0xbf80f227	-1.0073899
21	0xbe07cf62	-0.13262704
22	0xbf45a4de	-0.7720469
23	0xbe69c4a0	-0.22828913
24	0x3ebd7723	0.37004957
25	0xbf93eb23	-1.1556133
26	0x3d55f052	0.05223114
27	0x3f26a7a4	0.6509955
28	0x3f8988ca	1.074487
29	0x3f600d7f	0.87520593
30	0xbf5d2452	-0.86383545
31	0x3f539655	0.82651263
32	0xbf9b1eec	-1.2118812
33	0x3eb15a1b	0.34639058
34	0x3f714294	0.94242215
35	0x3f8755e4	1.0573087
36	0x3f3bc5cd	0.73348695
37	0x3ccfffc3	0.025390511
38	0x3f334497	0.70026535
39	0xbfa7951e	-1.3092382
40	0x3d1bb06e	0.038010053
41	0xbc91f703	-0.01781798
42	0x3dedac08	0.11605078
43	0x3f3ded08	0.74189806
44	0xbf4c7df2	-0.7987968
45	0x3f13403b	0.5751988
46	0x3ec064e8	0.37576985
47	0x3f28779a	0.658075
48	0x3efa448b	0.4888042
49	0x3eb6d5ba	0.35709935
50	0x3f75095f	0.95717424
51	0x3f15eb83	0.5856249
52	0x3e9471f8	0.289932
53	0x3ed4c1bf	0.41554067
54	0xbe23f424	-0.16011101
55	0x3e962390	0.29324007
56	0x3f33fa87	0.7030415
57	0xbf3d0614	-0.738374
58	0x3f61fb53	0.88274115
59	0xbf97c441	-1.1856767
60	0x3f818dc9	1.0121394
61	0xbf98e418	-1.1944609
62	0x3f3e589d	0.74353963
63	0x3f11a905	0.5689853

sequential_1/dense_1/BiasAdd/ReadVariableOp f4 [128]
0	0xbf6180d3	-0.88087195
1	0xbf79ebd2	-0.9762546
2	0xbf0c5df6	-0.54830873
3	0xbf8bad42	-1.0912249
4	0xbf37d9bf	-0.7181663
5	0xbf50ce93	-0.8156521
6	0xbe9fe72c	-0.31231058
7	0xbec2306b	-0.37927565
8	0xbf8a5d47	-1.0809716
9	0xbf7567a5	-0.95861274
10	0xbf954eae	-1.1664636
11	0xbeeb26ec	-0.45928133
12	0xbf8d2c15	-1.1029078
13	0xbfa8d8e1	-1.3191186
14	0xbf9cf6fe	-1.2262876
15	0xbff2836f	-1.894636
16	0xbfc200fd	-1.5156552
17	0xbfcddabd	-1.6082379
18	0xbfc3c9c7	-1.5295953
19	0xbfb8d6db	-1.4440569
20	0xbf84ec3c	-1.0384593
21	0xbf72096d	-0.9454563
22	0xbf0cee91	-0.55051523
23	0xbfefe677	-1.8742207
24	0xbfcc67c2	-1.5969164
25	0xbfa40605	-1.2814337
26	0xbf917eff	-1.1366881
27	0xbf881466	-1.0631225
28	0xbfc7297f	-1.5559539
29	0xbf23d2c9	-0.6399351
30	0xbffe9c5f	-1.9891471
31	0xbfce8ba3	-1.6136364
32	0xbfc1b9d5	-1.5134836
33	0xbf202aba	-0.62565196
34	0xbfa0fe66	-1.2577636
35	0xbeda29d0	-0.42610025
36	0xbf97ec75	-1.1869036
37	0xbe37af89	-0.17938055
38	0xbf9bfe00	-1.218689
39	0xbf1e4123	-0.6181814
40	0xbe66deaa	-0.22545877
41	0xc001bd92	-2.0271955
42	0xbf4bacb0	-0.79560375
43	0xc0108d13	-2.2586105
44	0xbf3ed03a	-0.7453648
45	0xbed6c89d	-0.4194993
46	0xbfa9b1e8	-1.3257418
47	0xbf0a1acf	-0.53947157
48	0xbf71205d	-0.9419001
49	0xbefbddfa	-0.49192792
50	0xbec82321	-0.390893
51	0xbf16c480	-0.58893585
52	0xbe4f2717	-0.20229755
53	0xbfe0f123	-1.7573589
54	0xbf21ce7c	-0.63205695
55	0xbfd10637	-1.6330022
56	0xbf59f23f	-0.85135263
57	0xbf43cf70	-0.764884
58	0xbf2e7f0f	-0.68162626
59	0xbf6a9d9d	-0.9164675
60	0xbf26c99f	-0.651514
61	0xbfb31e16	-1.3993556
62	0xbfad5545	-1.3541647
63	0xbf865b51	-1.0496618
64	0xbf82425a	-1.0176499
65	0xbf452b55	-0.77019244
66	0xbfed78e6	-1.855252
67	0xbec9a1a1	-0.39381126
68	0xbf84aca4	-1.0365186
69	0xbf8f5686	-1.119828
70	0xbfed8d6b	-1.8558782
71	0xbfecefe5	-1.851071
72	0xbed02f5d	-0.40661135
73	0xc021e89a	-2.5298219
74	0xbf754db7	-0.9582171
75	0xbff4fc72	-1.913954
76	0xbffb680b	-1.9641126
77	0xbf5c8676	-0.8614267
78	0xbfc51273	-1.5396255
79	0xbfa1ad51	-1.2631017
80	0xbf8bdeed	-1.0927407
81	0xbfa084a8	-1.2540483
82	0xbfbf0502	-1.4923403
83	0xbf7bbc8d	-0.9833458
84	0xbfbb74fc	-1.4645076
85	0xbf438965	-0.7638152
86	0xbf4adf2d	-0.7924679
87	0xbf2f3d72	-0.68453133
88	0xbf4acba9	-0.7921701
89	0xbf293cf9	-0.6610866
90	0xbf431612	-0.7620555
91	0xbf0cc939	-0.5499454
92	0xbf935c59	-1.1512557
93	0xbfae630e	-1.3623979
94	0xbed061ff	-0.40699765
95	0xbf96b708	-1.1774607
96	0xbfedc344	-1.8575215
97	0xbe99e0c2	-0.3005429
98	0xbf7fa6ce	-0.998639
99	0xbfd86228	-1.6904955
100	0xbf30be9a	-0.69040835
101	0xbf812e68	-1.0092287
102	0xc03d7ff2	-2.9609342
103	0xbf766be7	-0.96258396
104	0xbf435c9f	-0.76313204
105	0xbea17804	-0.31536877
106	0xbfc57706	-1.5426948
107	0xbfbc31c6	-1.470269
108	0xbe352cb6	-0.17692837
109	0xbfc92edc	-1.5717425
110	0xbed153af	-0.40884158
111	0xbf5fd90f	-0.8744058
112	0xbf8c32a3	-1.0952953
113	0xbfe28618	-1.7697172
114	0xbf3d4199	-0.7392822
115	0xbeef22b2	-0.46706158
116	0xbf08450c	-0.5323036
117	0xc00832d6	-2.1281028
118	0xbf865072	-1.04933
119	0xbfb32ae5	-1.3997465
120	0xbf0b373e	-0.5438117
121	0xbf8d26d2	-1.1027472
122	0xbf4dd2b4	-0.8039963
123	0xbff84da9	-1.93987
124	0xbfc34492	-1.5255301
125	0xbf03d33a	-0.5149418
126	0xbf29602c	-0.6616237
127	0xbf4462f5	-0.76713496

sequential_1/dense_1/MatMul f4 [128, 24]
0	0xbe1963f0	-0.1497953
1	0x3e659dee	0.22423527
2	0x3e239cfe	0.15977857
3	0x3e2c40f4	0.16821653
4	0xbc71a42a	-0.014748612
5	0x3eb8e92a	0.3611539
6	0xbf0d6ebc	-0.5524709
7	0xbea760fe	-0.32691187
8	0xbc5eff33	-0.013610649
9	0x3ec0d1ef	0.37660167
10	0x3ecd8181	0.40137866
11	0x3e9f6d96	0.31138295
12	0x3d847c2a	0.06468995
13	0xc04ab71d	-3.1674263
14	0x3e2be2b4	0.16785699
15	0x3ef60e20	0.48057652
16	0x3e0d1751	0.13778426
17	0x3b321e74	0.0027178796
18	0xbcb83ce8	-0.02248998
19	0x3deda7f7	0.116043024
20	0xbe3c91ce	-0.18414995
21	0xbe2efb68	-0.17088091
22	0x3eb23a0b	0.34809908
23	0x3ddd9746	0.10819869
24	0x3e5c4203	0.21509556
25	0xc018e40b	-2.3889186
26	0xbd16e180	-0.036836147
27	0xbebc92ce	-0.36830753
28	0x3ca57391	0.020196708
29	0x3da3cbf7	0.079978876
30	0x3db0795f	0.086169
31	0x3e1e0cbd	0.15434547
32	0x3db2c881	0.08729649
33	0x3da04996	0.078265354
34	0xba68a5db	-0.0008874812
35	0xbdfac3c1	-0.12244368
36	0xbd9e6d4d	-0.07735691
37	0x3d5c4875	0.053780038
38	0x3c2a905e	0.010410396
39	0xbe672d88	-0.22575963
40	0x3e395eec	0.18102616
41	0x3d8090a8	0.06277591
42	0xbdbed69e	-0.09318279
43	0x3d256883	0.040382873
44	0xbed5471d	-0.41655818
45	0xbeac695b	-0.3367413
46	0x3e896869	0.2683747
47	0xbe21b19e	-0.15790412
48	0xbf43195d	-0.76210576
49	0xbd2b660d	-0.04184537
50	0x3c7a23ba	0.015267307
51	0xbe3bf7c8	-0.1835624
52	0xbd8c53fb	-0.068519555
53	0x3e0936f7	0.13399874
54	0xc018fdf1	-2.3904994
55	0x3e23ba23	0.15988974
56	0x3aea79f2	0.0017889126
57	0x3d86cb64	0.065817624
58	0xbdae309f	-0.085053675
59	0xbeb5285e	-0.3538236
60	0x3db3bcfd	0.08776281
61	0xbf92aa41	-1.1458207
62	0xbf0184e0	-0.50593376
63	0x3e5143ee	0.2043607
64	0x3d61a266	0.055086516
65	0x3bf13036	0.0073604835
66	0x3ddba778	0.107253015
67	0x3e71f60b	0.23629014
68	0x3eb3c9cb	0.35114893
69	0x3f390f67	0.7228913
70	0x3f0577a0	0.5213566
71	0xbd87dde4	-0.06634119
72	0xbd82a0e1	-0.063783415
73	0xbf16e324	-0.5894034
74	0x3e1cecec	0.15324754
75	0xbe27ac49	-0.16374315
76	0xbe7a3a8d	-0.24436398
77	0x3ef1e93c	0.47248256
78	0xbf878fa2	-1.0590708
79	0xbd740d24	-0.059582844
80	0xbcceaf6c	-0.025230132
81	0x3e25828a	0.16163078
82	0xbf12dcaa	-0.57367957
83	0x3ddb294e	0.107012376
84	0xbc9e3877	-0.019314034
85	0xbf967945	-1.1755759
86	0xbe0f2a61	-0.1398101
87	0xbf01d456	-0.50714624
88	0x3f045322	0.5168935
89	0xbdabdea1	-0.083920725
90	0xbed2538d	-0.4107937
91	0x3c88887f	0.016666649
92	0x3eaa669a	0.33281404
93	0x3f3c3278	0.7351451
94	0xbeefe53f	-0.46854588
95	0xbdf040e6	-0.117311284
96	0x3ee71ee2	0.4514075
97	0x3f25c1ac	0.64748645
98	0xbe1cae43	-0.1530085
99	0xbf2bb79e	-0.6707705
100	0x3e4609c4	0.19339663
101	0x3e9ac2cf	0.30226752
102	0x3edf0717	0.43560097
103	0x3e3276cf	0.17428134
104	0x3d38c977	0.045114007
105	0xbb254f6d	-0.0025224343
106	0x3e0d38e7	0.13791238
107	0xbed1a2ef	-0.4094462
108	0xbd476f63	-0.04869021
109	0x3dcdeb66	0.10054664
110	0xbd07ad2b	-0.03312413
111	0xbf7e006a	-0.9921938
112	0x3e2bc9e5	0.16776235
113	0xbbefa909	-0.0073138517
114	0x3c1a53c9	0.00941939
115	0xbdbc27e4	-0.09187296
116	0xbf03af15	-0.5143903
117	0xbee5249c	-0.44754493
118	0xbf15a8b1	-0.5846053
119	0xbe2a9ed2	-0.16662148
120	0xbf1a3f54	-0.6025288
121	0x3e61d0da	0.22052327
122	0xbd2724a6	-0.040806435
123	0xbe2eb301	-0.17060472
124	0xbdf2255d	-0.11823533
125	0x3f17f4d8	0.59357977
126	0x3e9d9d0a	0.30783874
127	0x3ee0d4d9	0.4391239
128	0x3e268492	0.16261509
129	0x3f160952	0.5860797
130	0xbf64164f	-0.8909654
131	0x3e71eff9	0.23626699
132	0xbd984845	-0.07435659
133	0xbe2d33ce	-0.16914293
134	0xbe0a8365	-0.13526686
135	0xbd52e151	-0.05148441
136	0xbd6f1f02	-0.05837918
137	0x3e157cce	0.1459839
138	0x3d8f0051	0.06982482
139	0x3ccd66ea	0.025073487
140	0xbebca5d9	-0.36845282
141	0x3f8180e6	1.0117462
142	0xbf3516db	-0.70738
143	0xbda3804e	-0.079834566
144	0x3dac9195	0.08426205
145	0x3f4e5e2b	0.8061244
146	0x3dd67729	0.10471947
147	0xbf451fd3	-0.77001685
148	0x3c36de6a	0.011161426
149	0x3f32988b	0.6976401
150	0x3eb57252	0.35438782
151	0x3e922a49	0.28547886
152	0x3e5f72b5	0.21821101
153	0xbe818bd1	-0.25301984
154	0xbf0deefa	-0.55442774
155	0xbe9ce135	-0.3064057
156	0x3cd6e3cf	0.026231674
157	0xbe1977cc	-0.14987105
158	0xbdabb4fd	-0.0838413
159	0xbf45d5f7	-0.7727961
160	0x3e8b18a3	0.27167234
161	0x3dbe37b2	0.09287967
162	0x3e9092ad	0.28236905
163	0x3d307f62	0.04309023
164	0xbf09efa4	-0.5388129
165	0x3f8c7c34	1.0975404
166	0x3decd184	0.115633994
167	0x3e0c1577	0.13680063
168	0xbe0995a8	-0.13435996
169	0xbe6c853f	-0.23097704
170	0xbe07dc5b	-0.13267653
171	0x3f134dc3	0.5754053
172	0x3d2d4c86	0.042309307
173	0x3e61a108	0.22034085
174	0xbfaa2109	-1.3291332
175	0x3d1f841b	0.038944345
176	0xbe24fe9f	-0.16112755
177	0x3e4f387c	0.20236391
178	0xbeca9c73	-0.39572486
179	0xbf1f89df	-0.6231975
180	0x3e78b263	0.24286799
181	0xbf414c2e	-0.75506866
182	0xbec7d217	-0.39027473
183	0xbd0f8827	-0.035041954
184	0x3e9ab942	0.30219465
185	0xbebca1fa	-0.36842328
186	0x3eda68b0	0.42657995
187	0x3e902cc4	0.28159153
188	0x3f1ef979	0.62099415
189	0xbeae7faf	-0.3408179
190	0x3e7060b3	0.23474388
191	0xbd903828	-0.07041961
192	0xbd8bb213	-0.06821074
193	0xbd1e4959	-0.03864417
194	0x3c782bb4	0.015147138
195	0xbf053417	-0.5203261
196	0x3e4c8b9a	0.19975129
197	0x3f11316c	0.56716037
198	0x3d4e21ba	0.050325133
199	0xbda99522	-0.08280398
200	0xbd7a1247	-0.061052587
201	0xbc09dc07	-0.008414275
202	0xbe57da6a	-0.21079412
203	0x3f1506ae	0.5821332
204	0x3d5a33fa	0.053272225
205	0x3e3eb94a	0.1862537
206	0x3d4e3197	0.05034026
207	0xbf594376	-0.8486856
208	0x3db9c238	0.090702474
209	0x3d917a5d	0.07103417
210	0xbd67c4e7	-0.056584265
211	0x3d5c57de	0.053794734
212	0xbfabcfdc	-1.3422809
213	0xbeffd9db	-0.49970898
214	0x3e84c48a	0.25931197
215	0xbe3961b0	-0.18103671
216	0xbef3b35e	-0.47597784
217	0xbfcfabd5	-1.6224314
218	0x3db6e0ce	0.08929597
219	0xbdd8d7b7	-0.10588019
220	0xbccf90f3	-0.025337672
221	0x3eeb0880	0.45904922
222	0x3e68bd4a	0.22728458
223	0xbf12b47e	-0.5730666
224	0xbdc234cf	-0.09482729
225	0xbf00b82c	-0.50281024
226	0x3ee4ce2a	0.4468854
227	0x3dbb50db	0.09146281
228	0x3de38a3a	0.11110349
229	0x3e18ea4d	0.14933129
230	0x3e7563c0	0.23963833
231	0xbe0c6547	-0.13710509
232	0xbcbac471	-0.022798749
233	0x3d32ac9f	0.043621656
234	0x3e4a7dd6	0.19774565
235	0x3e859d8d	0.26096764
236	0xbe022401	-0.12709047
237	0xbeaa5994	-0.33271468
238	0x3eea9423	0.45816144
239	0x3dc13512	0.094339505
240	0xbe020e14	-0.12700683
241	0xbe2046d9	-0.15652026
242	0x3d9fb08f	0.07797348
243	0x3f4f7a55	0.8104604
244	0x3e44bb6f	0.19212125
245	0xbe0a5130	-0.13507533
246	0x3ebeb4f2	0.37247425
247	0x3ec2c7a5	0.38042942
248	0x3dbe4f1c	0.09292433
249	0x3da403c0	0.08008528
250	0x3baee333	0.005337143
251	0x3f87e930	1.0618038
252	0xbcf9cd61	-0.03049344
253	0xbe9b023d	-0.30275145
254	0xbec95f4b	-0.39330515
255	0x3e9c8e55	0.3057734
