thparty/include/mlmodels/phishing_detection.tflite (tflite, 48456 bytes, 6 tensors)

arith.constant f4 [4, 64]
-0.89226925 0.0058479197 -1.3684846 -1.1943392 0.104537584 -0.025040302 -0.73417026 -0.26299074
0.33318263 0.19335437 -0.056732453 -0.03783202 -0.31049365 -0.3651335 -0.38054502 -0.45417848
-0.4809759 0.11465736 -0.07861306 -0.6282615 -0.0149287 0.0095397 0.2320249 0.20326892
-0.078625895 -0.73272127 -0.069987364 -0.1986394 0.0060672937 -0.2999744 -0.13890639 -1.0140742
-0.10092422 0.19091183 0.14714663 0.02708508 0.21555759 0.5936306 -0.24497598 -0.051996537
-1.5143054 -0.47757214 0.14259148 -1.058604 -0.2284722 0.082502045 -0.94136554 0.20250854
-0.29657128 -1.002723 -0.5988974 0.11639977 0.1278831 0.10481946 -0.5361783 -1.613664
-0.32007837 -0.17259243 -0.6638485 0.010331076 0.27196506 -0.055549126 -0.25197497 0.26685694
-0.4311387 0.0295644 0.31608707 -0.74886733 -2.0507364 0.06259107 0.046760302 -0.19091089
-0.37129208 -1.0292399 -0.5590468 -0.777255 -1.0169523 0.048395935 0.006843426 0.020654298
0.11729392 0.21457726 -2.0223284 -0.13277252 -2.6056352 -0.07718854 0.17081015 -0.76211846
-1.1132597 -0.5048286 -0.5082369 -1.0622585 -0.04829236 0.10874153 -0.10485015 0.07324627
-0.15753675 -0.6162805 -0.70053643 0.34343874 0.06136855 -0.21503562 -0.8673017 -0.55457413
0.17066725 0.086967774 -0.8415247 0.23247251 -0.9491384 0.09875802 -0.0654721 -1.0051143
-1.0481815 0.000764202 0.020673797 -0.27989963 0.11864111 -0.8102875 0.0010783775 -1.0551074
-0.6892627 -0.69813055 -0.43298185 -0.41286236 -0.22371043 -1.475589 -0.74207425 0.15953484
-0.2034897 -0.5624458 0.33152166 -0.17287652 0.2961975 -0.093402125 -0.36310485 -0.015662534
-0.2915227 -0.18650669 -0.02124646 -0.04755123 -0.32366458 0.003128892 -0.054663472 -0.3710427
-0.17801803 -0.047470845 -1.1173909 -0.17028421 0.22837946 -0.47609517 -0.08842054 0.20385475
-0.27197292 -0.20250191 -0.3681816 -0.33092886 -0.19153625 0.07964131 0.18218602 0.06775181
-0.11212657 0.150677 0.07295684 0.21466571 0.18147618 -0.62280554 -0.015187646 0.0669477
-0.053290833 0.028584631 0.10943161 0.2693902 -1.2181308 -0.21492685 -0.077351876 -0.03354856
-0.46789527 -0.27771965 -0.58201516 -0.047892135 -0.23735411 -0.263979 -0.64236873 1.4347016
0.27332404 -0.40377283 0.050347745 -0.23725383 -0.43507436 0.10883977 0.06281521 -0.06970241
-0.24538569 0.10660673 0.3533501 0.12219768 -0.93029976 -0.6968012 0.15516073 -0.042384595
-0.04478593 0.5886923 -0.115456216 -0.15709986 0.2720285 0.09231105 -0.6746942 -0.22698714
0.18256736 -0.43873516 0.509453 -0.50499296 -0.14021325 0.004330714 0.18687095 0.13785316
-0.06605807 -0.28906095 -0.29658407 -0.8428592 -0.02039928 0.11393719 -2.606579 0.06301331
-0.7141306 0.29670262 -0.056096427 -0.927532 -0.51829827 -0.15886907 -0.064234644 -0.07960153
-0.3420478 -0.15303032 -0.022453677 0.24258266 0.28561524 -0.3318927 -0.056826685 -0.45769733
-0.27084365 -0.6245822 -0.7186048 -0.40595976 0.108035915 -0.44197997 0.2854048 -5.402923
0.19137105 0.30985218 0.074242376 -0.063565895 0.24949986 -0.11475572 0.043034196 -0.8309097
00000000: c26b 64bf e89f bf3b 812a afbf 1be0 98bf
00000010: cd17 d63d 5221 cdbc 95f2 3bbf b9a6 86be
00000020: ea96 aa3e b0fe 453e 4a60 68bd c0f5 1abd
00000030: 06f9 9ebe c7f2 babe ccd6 c2be 158a e8be
00000040: 7942 f6be 7ad1 ea3d e2ff a0bd bfd5 20bf
00000050: 8297 74bc 674c 1c3c ef97 6d3e ba25 503e
00000060: 9d06 a1bd 9f93 3bbf 8955 8fbd 2068 4bbe
00000070: 26d0 c63b 3f96 99be 7a3d 0ebe 2fcd 81bf
00000080: 5cb1 cebd 647e 433e 9bad 163e 88e1 dd3c
00000090: 21bb 5c3e 2df8 173f fcda 7abe 52fa 54bd
000000a0: c2d4 c1bf 5684 f4be 8003 123e 5680 87bf
000000b0: 9ef4 69be d5f6 a83d 55fd 70bf 665e 4f3e
000000c0: 31d8 97be 3a59 80bf 5751 19bf 0163 ee3d
000000d0: caf3 023e 96ab d63d fb42 09bf 8b8c cebf
000000e0: 50e1 a3be 12bc 30be faf1 29bf ac43 293c
000000f0: 013f 8b3e 7b87 63bd dd02 81be 79a1 883e
00000100: 36be dcbe 0a31 f23c 2ad6 a13e c5b5 3fbf
00000110: 443f 03c0 bf2f 803d bb87 3f3d 257e 43be
00000120: ff19 bebe 22be 83bf b11d 0fbf 2ffa 46bf
00000130: 7e2b 82bf d13a 463d d13e e03b 3433 a93c
00000140: cb37 f03d 24ba 5b3e d46d 01c0 85f5 07be
00000150: bac2 26c0 0615 9ebd dbe8 2e3e 321a 43bf
00000160: 4b7f 8ebf 723c 01bf d01b 02bf 16f8 87bf
00000170: 36ce 45bd e1b3 de3d adbb d6bd 2402 963d
00000180: 5051 21be 8fc4 1dbf 5b56 33bf 34d7 af3e
00000190: 975d 7b3d 4c32 5cbe 7c07 5ebf 92f8 0dbf
000001a0: 65c3 2e3e 291c b23d 2a6e 57bf 460d 6e3e
000001b0: bcfa 72bf a541 ca3d 3d16 86bd 96a7 80bf
000001c0: d02a 86bf ba54 483a 185c a93c 014f 8fbe
000001d0: 1cfa f23d 006f 4fbf 5858 8d3a c20d 87bf
000001e0: 8573 30bf afb8 32bf ccaf ddbe b262 d3be
000001f0: 5914 65be 1ae0 bcbf 94f8 3dbf 1a5d 233e
00000200: 9b5f 50be 73fc 0fbf 35bd a93e 8b06 31be
00000210: 33a7 973e 9d49 bfbd e1e8 b9be b74e 80bc
00000220: 7742 95be 9cfb 3ebe 0e0d aebc 14c5 42bd
00000230: 5db7 a5be 190e 4d3b cee6 5fbd 4ff9 bdbe
00000240: 5c4a 36be ca70 42bd aa06 8fbf fc5e 2ebe
00000250: 4edc 693e bfc2 f3be d415 b5bd 4dbf 503e
00000260: 0940 8bbe a95c 4fbe 4c82 bcbe 826f a9be
00000270: 1422 44be fc1a a33d f98e 3a3e 76c1 8a3d
00000280: 9da2 e5bd 124b 1a3e 656a 953d 54d1 5b3e
00000290: e4d4 393e 2f70 1fbf 9bd5 78bc e01b 893d
000002a0: 7d47 5abd 512a ea3c ae1d e03d 83ed 893e
000002b0: b6eb 9bbf c915 5cbe a96a 9ebd 376a 09bd
000002c0: f88f efbe 4531 8ebe f2fe 14bf 8b2a 44bd
000002d0: f50c 73be 4128 87be 4772 24bf 4da4 b73f
000002e0: 21f1 8b3e 50bb cebe 7039 4e3d abf2 72be
000002f0: 11c2 debe 63e7 de3d 43a5 803d 23c0 8ebd
00000300: 6346 7bbe a154 da3d 4eea b43e c742 fa3d
00000310: 2028 6ebf 9061 32bf 74e2 1e3e 789b 2dbd
00000320: 7471 37bd 8ab4 163f 4f74 ecbd c9de 20be
00000330: 5247 8b3e 930d bd3d c2b8 2cbf 516f 68be
00000340: f0f2 3a3e e5a1 e0be 836b 023f 3847 01bf
00000350: 1094 0fbe a9e8 8d3b 195b 3f3e 6129 0d3e
00000360: 7449 87bd ccff 93be ded9 97be 9fc5 57bf
00000370: 641c a7bc e757 e93d 31d2 26c0 1f0d 813d
00000380: 43d1 36bf 68e9 973e 5ec5 65bd bd72 6dbf
00000390: 32af 04bf 93ae 22be 748d 83bd 2106 a3bd
000003a0: e420 afbe fbb3 1cbe c6f0 b7bc 9767 783e
000003b0: 293c 923e d7ed a9be 19c3 68bd 4e57 eabe
000003c0: 05ac 8abe 9ee4 1fbf 7cf6 37bf f5d9 cfbe
000003d0: ef41 dd3d 334b e2be 9420 923e bfe4 acc0
000003e0: c6f6 433e f2a4 9e3e 630c 983d d62e 82bd
000003f0: e47c 7f3e 0c05 ebbd a044 303d 80b6 54bf

arith.constant1 f4 [64, 128]
0.07272422 -2.7951756 0.23614761 -0.5309727 0.29020348 -0.25689295 0.5052219 -0.85798055
0.011317825 0.22095771 -0.24496602 0.04414344 0.35068697 0.39098683 0.28550372 -0.4792553
-0.11193672 0.23028423 0.18261172 0.17114432 0.020853376 0.3424223 0.11253961 -0.5095906
0.06695619 0.23592594 -1.4852886 0.20252614 -0.33785722 -0.55424196 0.1269051 -0.100277275
-0.32209715 -0.15433183 -0.36885646 0.070687525 0.9742472 0.31056142 -1.2409732 0.48154944
-0.54066676 -0.25058568 1.1751488 -0.6669291 0.0252846 0.22302167 0.8703422 -1.1795542
-0.0131283365 -1.6980547 -0.6072399 -0.2770796 -0.4575227 0.6009846 -0.010358916 -0.09017083
-0.024278788 -0.3577435 -0.034187187 -1.248646 -1.3236239 -0.028013088 0.15366858 -0.4971645
-1.2914631 -1.6533444 -0.8893841 -0.94558656 0.2231184 -0.121569104 1.1463648 -0.0947293
-0.6419489 0.38284865 0.566369 -0.9195436 -0.73925334 0.25379372 0.0681151 -0.26712042
-0.16743039 -0.0030150597 0.112588145 -0.0639713 -2.5515146 0.3084624 -0.16686848 0.15297817
0.37495282 0.0044584493 0.20228864 0.122788236 -0.09000849 -1.3070698 -0.05293565 -0.8789368
-0.41361782 0.26281253 -0.27131855 0.3603227 0.6763414 -1.283749 -2.3345885 -0.15332918
-0.16606806 0.26842907 -0.070900105 0.07913997 0.16069648 0.18888949 0.103918344 -0.0154370405
0.07266286 0.10330223 -0.08702281 -0.8709795 0.05239152 -0.28411496 -0.5408411 -0.22351007
0.002730625 -0.06843585 0.36675397 -0.012053573 -0.08910477 -0.031383254 -2.7888167 0.76202375
0.092073016 1.1980379 0.035428304 0.16213939 0.1323788 -0.6958786 -0.55910146 0.46773982
-0.3205785 0.18784028 0.6887502 0.08835648 -0.53436756 0.45933732 -0.11637326 0.1263654
-0.6093983 -0.29707462 -0.21184964 0.1189041 -0.42849436 0.41979888 -0.04562567 0.5847219
-0.6700522 0.24829747 -1.1441705 -0.05950905 0.26496753 0.018355912 -0.10980315 0.017841497
-0.4774038 -1.1671958 -0.44625136 -0.1266817 -0.19456717 -0.3667751 -0.2758162 0.36446732
-1.1354376 -0.07189789 -2.672512 0.34709203 0.69472444 -0.12789764 -0.038134575 -1.0415126
0.29422146 0.30793688 -0.075600274 0.057250924 0.098878175 -0.67405874 0.038843703 0.029225385
-0.6378583 -0.7717143 -0.044824824 0.14210565 0.016336102 -0.052185293 0.2315824 -0.61556244
-0.15096335 -0.9534544 -0.69765294 0.5102112 0.45923737 0.074579194 -0.14860065 0.1870704
-0.25006798 -0.28287423 -0.5777327 -0.0051353145 -1.5653013 -0.09459335 -0.18072899 0.018154712
-0.21412838 0.093554646 -0.2496014 0.09819942 -0.10912756 0.17634392 -0.034042474 -0.03935653
-0.14455783 0.16060261 0.0052764374 -0.073974326 0.039068986 -0.068055466 -0.067856304 -0.20210132
-0.3191139 -0.17765312 -0.010136462 0.25524485 -0.09221019 -1.5378741 -0.14142449 -1.0289388
0.48309445 -0.08629151 -0.29663238 -0.46801016 0.07729642 -0.00600461 0.4181466 0.07064025
-0.04474673 -0.5470664 -0.49826017 -0.10934728 -0.13467754 0.23149677 0.24955672 0.002234857
-0.1361885 0.026268886 0.47548983 -0.53100604 -0.008685624 0.10965378 0.19328943 0.26468927
00000000: 70f0 943d 28e4 32c0 aed0 713e d4ed 07bf
00000010: 8d95 943e 7987 83be 3956 013f 9da4 5bbf
00000020: 666e 393c bd42 623e 5fd8 7abe c0cf 343d
00000030: 3e8d b33e 6d2f c83e 8b2d 923e f360 f5be
00000040: 143f e5bd a1cf 6b3e 91fe 3a3e 7540 2f3e
00000050: b3d4 aa3c fa51 af3e 2b7b e63d 8874 02bf
00000060: 5420 893d 9296 713e f01d bebf 0363 4f3e
00000070: 9ffb acbe cde2 0dbf 69f3 013e 2c5e cdbd
00000080: ebe9 a4be 2a09 1ebe c1da bcbe 9fc4 903d
00000090: 4468 793f e801 9f3e 36d8 9ebf a68d f63e
000000a0: 2369 0abf c44c 80be 476b 963f debb 2abf
000000b0: a621 cf3c cb5f 643e bfce 5e3f a2fb 96bf
000000c0: 3c18 57bc db59 d9bf 1374 1bbf 61dd 8dbe
000000d0: 6a40 eabe 20da 193f 71b8 29bc 7cab b8bd
000000e0: 4fe4 c6bc 282a b7be dd07 0cbd a2d3 9fbf
000000f0: 826c a9bf b47b e5bc 4c5b 1d3e 588c febe
00000100: aa4e a5bf caa0 d3bf adae 63bf f611 72bf
00000110: 2679 643e 39f9 f8bd 15bc 923f 6f01 c2bd
00000120: c356 24bf bd04 c43e 8ffd 103f 3667 6bbf
00000130: b53f 3dbf 40f1 813e ee7f 8b3d 02c4 88be
00000140: df72 2bbe 4f98 45bb 9d94 e63d 6303 83bd
00000150: 044c 23c0 c9ee 9d3e 92df 2abe 4fa6 1c3e
00000160: d1f9 bf3e 2f18 923b c124 4f3e 6678 fb3d
00000170: 5f56 b8bd 104e a7bf 0dd3 58bd 0102 61bf
00000180: b7c5 d3be 5d8f 863e 44ea 8abe 387c b83e
00000190: b624 2d3f e351 a4bf e669 15c0 5302 1dbe
000001a0: bf0d 2abe 896f 893e 1334 91bd 2314 a23d
000001b0: 9e8d 243e 3f6c 413e 24d3 d43d a4eb 7cbc
000001c0: 44d0 943d 1f90 d33d 0439 b2bd 83f8 5ebf
000001d0: 7e98 563d 8477 91be 9074 0abf d3df 64be
000001e0: 49f4 323b 1828 8cbd 2dc7 bb3e 597c 45bc
000001f0: 907c b6bd ba8b 00bd f97b 32c0 fd13 433f
00000200: c790 bc3d 4e59 993f 451d 113d de07 263e
00000210: 4f8e 073e 1a25 32bf 4621 0fbf 987b ef3e
00000220: dd22 a4be 3459 403e ef51 303f 3ef4 b43d
00000230: 50cc 08bf 432e eb3e 1b55 eebd ee65 013e
00000240: 8701 1cbf 2a1a 98be 1def 58be fe83 f33d
00000250: 9d63 dbbe e1ef d63e fce1 3abd 56b0 153f
00000260: 8a88 2bbf b141 7e3e 2e74 92bf c3bf 73bd
00000270: d3a9 873e 235f 963c 79e0 e0bd 5528 923c
00000280: 456e f4be ac66 95bf 0f7b e4be d9b8 01be
00000290: 9e3c 47be f2c9 bbbe c837 8dbe 769b ba3e
000002a0: 0556 91bf 333f 93bd 700a 2bc0 0cb6 b13e
000002b0: 76d9 313f 99f7 02be 0033 1cbd 4950 85bf
000002c0: 32a4 963e e7a9 9d3e 51d4 9abd f27f 6a3d
000002d0: a480 ca3d 1d8f 2cbf 931a 1f3d 136a ef3c
000002e0: ae4a 23bf 128f 45bf 3c9a 37bd 2584 113e
000002f0: 4ad3 853c 3fc0 55bd f023 6d3e 8095 1dbf
00000300: 2396 1abe 9615 74bf 6299 32bf 349d 023f
00000310: 2921 eb3e fabc 983d c52a 18be 628f 3f3e
00000320: e908 80be e4d4 90be 4ae6 13bf 2446 a8bb
00000330: cb5b c8bf 29ba c1bd 0511 39be 31b9 943c
00000340: 7844 5bbe 9499 bf3d 8297 7fbe c71c c93d
00000350: 457e dfbd 8093 343e 1f70 0bbd 5034 21bd
00000360: f806 14be 0375 243e f7e5 ac3b da7f 97bd
00000370: cd06 203d aa60 8bbd 3ff8 8abd a6f3 4ebe
00000380: e662 a3be b3ea 35be 6713 26bc 74af 823e
00000390: b2d8 bcbd 0fd9 c4bf 95d1 10be 44b4 83bf
000003a0: 2858 f73e 9ab9 b0bd 33e0 97be 079f efbe
000003b0: 964d 9e3d 52c2 c4bb 5017 d63e d6ab 903d
000003c0: 5948 37bd 8b0c 0cbf f51b ffbe 77f1 dfbd
000003d0: e9e8 09be 7d0d 6d3e cc8b 7f3e ae76 123b
000003e0: 0075 0bbe d931 d73c 6773 f33e 03f0 07bf
000003f0: 264e 0ebc 2992 e03d aaed 453e 5a85 873e

arith.constant2 f4 [4]
0.6055931 0.48555687 -0.11225843 -1.4786059
00000000: 2608 1b3f e99a f83e bfe7 e5bd f542 bdbf

sequential_1/dense_1_2/BiasAdd/ReadVariableOp f4 [64]
-1.3453674 1.1737326 0.010768078 0.7745053 0.58526415 0.41836628 0.3650364 -0.24724677
0.54708135 0.22534652 -0.78972685 -0.77741337 0.65670896 1.3650157 0.45520902 0.44018626
0.6657142 0.71868545 0.2779146 -1.077184 0.34932926 1.014644 1.1024917 0.17359325
0.3090795 -1.0154781 0.44055003 0.20752467 0.65487593 1.2124493 0.42421088 0.13580252
0.45665509 -0.74878526 0.512039 0.14460593 -0.37791944 -1.0431877 -1.0340751 -0.32653752
-0.28991598 0.11724228 -0.72421753 0.19039631 0.18371578 1.1227608 0.57938814 0.23488227
-0.025594186 0.7033498 0.65640074 -0.9938659 1.4781405 -0.21610165 0.73753834 -0.67274505
-0.85316056 0.029663267 1.0743897 0.4515603 0.9319522 0.22540739 -1.6644489 0.7578069
00000000: 0035 acbf df3c 963f 986c 303c fb45 463f
00000010: dfd3 153f 1b34 d63e 0de6 ba3e 422e 7dbe
00000020: 860d 0c3f 3dc1 663e 8a2b 4abf 9004 47bf
00000030: 141e 283f d6b8 ae3f 2811 e93e 1860 e13e
00000040: 3f6c 2a3f c5fb 373f d34a 8e3e 2ae1 89bf
00000050: 49db b23e dbdf 813f 731e 8d3f 6ec2 313e
00000060: ab3f 9e3e 30fb 81bf c68f e13e 5981 543e
00000070: f3a5 273f 8a31 9b3f 2b32 d93e d10f 0b3e
00000080: b2ce e93e 64b0 3fbf fd14 033f 9413 143e
00000090: a87e c1be 2d87 85bf 935c 84bf ed2f a7be
000000a0: de6f 94be b81c f03d 5266 39bf 40f7 423e
000000b0: fd1f 3c3e a0b6 8f3f c852 143f fa84 703e
000000c0: e6aa d1bc bc0e 343f e109 283f ff6d 7ebf
000000d0: b533 bd3f c049 5dbe 50cf 3c3f 0539 2cbf
000000e0: bb68 5abf 6100 f33c 9a85 893f e932 e73e
000000f0: 6b94 6e3f 32d1 663e a90c d5bf a2ff 413f

sequential_1/dense_1/BiasAdd/ReadVariableOp f4 [128]
-1.936999 -1.2817528 -0.7467163 -1.252845 -1.2315564 -0.9701033 -1.0891523 -0.77004117
-1.4776623 -0.74172413 -1.1594824 -1.4403723 -0.94681144 -0.9630807 -0.29209867 -1.6515905
-0.8281361 -0.5514613 0.047320426 -1.5374677 -0.6948096 -1.3428906 -0.6688625 -2.188671
-0.8258666 -0.34797847 -1.5891885 -0.8797833 -0.62814987 -1.0358168 -2.0222704 -0.87935287
-1.5324378 -1.107379 -0.50219566 -0.9879718 -1.1597068 -1.1584374 -1.517521 -1.1616403
-0.98711056 -0.76721454 -1.4847844 -1.6073472 -0.87591374 -1.3774242 -1.039254 -1.0132978
-0.5109296 -1.5587559 -0.9443234 -0.56289786 -0.9723521 -0.72881997 -0.97373694 -0.3897186
-0.86255085 -0.16149473 -0.93038714 -0.8962017 -0.95588475 -0.26522666 -0.33067822 -0.2479658
-0.42945275 -1.2475572 -0.853581 -1.1094548 -0.036345605 -0.68074983 -1.5785332 -0.6283029
-2.1070833 -0.9562063 -0.61719286 -0.7799375 -0.7897134 -0.7308403 -0.5469906 -1.2449195
-0.72756344 -0.48281837 -0.9940423 -0.57337296 -0.6197847 -0.7759257 -0.86409825 -1.4121892
-1.0657943 -1.0438603 -0.8657685 -1.6250108 -0.6789147 -2.0842757 -1.3412671 -0.6911886
-0.46478567 -1.1096809 -1.0688623 -0.27961144 -1.2958696 -2.0408716 -0.99752456 -0.92600715
-0.8420796 -1.0954437 -0.24345604 -1.5057012 -1.2921214 -0.28907114 -0.7655537 -0.99371314
-0.6763625 -0.584299 -1.1048206 -0.20500226 -1.1848807 -0.75343055 -0.8745991 -1.0072962
-1.476146 -0.88457584 -0.64871085 -0.676265 -1.800351 -0.89176494 -0.45064723 -1.2876132
00000000: 95ef f7bf 7a10 a4bf cd28 3fbf 3a5d a0bf
00000010: a4a3 9dbf b158 78bf 5869 8bbf 6b21 45bf
00000020: 0a24 bdbf a2e1 3dbf eb69 94bf 1f5e b8bf
00000030: 3c62 72bf 758c 76bf f58d 95be 5167 d3bf
00000040: ba00 54bf 912c 0dbf 10d3 413d becb c4bf
00000050: 0bdf 31bf d7e3 abbf 933a 2bbf 3013 0cc0
00000060: fe6b 53bf 3c2a b2be 876a cbbf 7a39 61bf
00000070: 6ece 20bf a595 84bf e16c 01c0 451d 61bf
00000080: ec26 c4bf 98be 8dbf e58f 00bf b8eb 7cbf
00000090: 4671 94bf ad47 94bf 213e c2bf a1b0 94bf
000000a0: 47b3 7cbf 2c68 44bf 6a0d bebf 8ebd cdbf
000000b0: e23b 60bf 704f b0bf 4606 85bf beb3 81bf
000000c0: 48cc 02bf 5085 c7bf 2ebf 71bf 131a 10bf
000000d0: 11ec 78bf f293 3abf d346 79bf 3289 c7be
000000e0: 22d0 5cbf e05e 25be da2d 6ebf 7a6d 65bf
000000f0: ddb4 74bf cacb 87be a84e a9be bfea 7dbe
00000100: 3be1 dbbe f4af 9fbf 4984 5abf 9d02 8ebf
00000110: 21df 14bd 9f45 2ebf 600d cabf 75d8 20bf
00000120: 74da 06c0 f0c9 74bf 5a00 1ebf fca9 47bf
00000130: a82a 4abf 5a18 3bbf 9307 0cbf 8659 9fbf
00000140: 9941 3abf f833 f7be 8e79 7ebf 92c8 12bf
00000150: 36aa 1ebf 11a3 46bf 8b35 5dbf 9ec2 b4bf
00000160: f36b 88bf 379d 85bf 01a3 5dbf 5b00 d0bf
00000170: 5bcd 2dbf c664 05c0 a4ae abbf bcf1 30bf
00000180: 63f8 edbe 060a 8ebf 7bd0 88bf 3b29 8fbe
00000190: 0edf a5bf a49d 02c0 c55d 7fbf ce0e 6dbf
000001a0: 8792 57bf 8037 8cbf 8a4c 79be d1ba c0bf
000001b0: 3c64 a5bf 2201 94be 54fb 43bf fc63 7ebf
000001c0: 1826 2dbf 9f94 15bf c36a 8dbf 1dec 51be
000001d0: 2caa 97bf d3e0 40bf bae5 5fbf 15ef 80bf
000001e0: 5af2 bcbf 9073 62bf ea11 26bf b41f 2dbf
000001f0: e771 e6bf b54a 64bf 3cbb e6be 82d0 a4bf

sequential_1/dense_1/MatMul f4 [128, 23]
0.50633293 -0.15361756 0.17795517 -0.2205507 0.27035952 -1.6433097 0.34167784 0.046614822
0.06745744 -1.717322 0.07720974 0.31028295 0.34021387 0.0067577283 -0.03630885 0.075457595
0.119807556 -0.012936056 0.23019376 -0.08151956 0.43938887 -0.30159822 0.11738247 -0.63126546
0.24588306 0.037214223 0.13528743 0.031724446 -1.5229665 -0.8266797 0.28099844 -0.09248018
0.20890203 0.25295353 0.1833572 -0.02773997 0.5825463 -0.16545239 -0.1478899 0.20898865
0.012473087 0.3145007 0.015502578 -0.015942339 0.09986953 -0.058253214 0.47323394 -0.36938468
-0.098872095 -0.82858986 0.102380484 0.36387748 0.7236394 -0.27191183 -0.19203368 -0.2720151
0.3458419 -0.1172093 0.06958042 -0.09169837 -0.19023946 0.47448376 0.26352683 -0.1213081
-0.0019484678 -0.11568123 -0.9685683 0.3302303 0.14816532 -0.022627594 0.01579321 0.07676086
0.1686809 0.05264677 -1.5195591 -0.016592674 -0.26531616 -0.14223294 0.1342434 0.2646782
0.255245 0.004330784 -0.95671034 0.51769716 0.11497218 0.13503394 -0.03817053 0.12461613
-0.0036200753 -0.3740631 0.2503171 -3.3840537e-05 -0.37311977 -0.6174798 -0.03775714 -0.06624052
0.0556382 -0.2966425 0.345075 -0.47632673 0.12538002 -0.097727016 -0.85169446 0.6571958
-0.012069562 -0.49984002 0.30751166 -0.46372855 0.13330312 0.19706774 -0.01239343 0.05051552
0.05468004 0.07570698 -0.04463406 0.44983163 -0.30155173 -0.16168088 0.38032195 -0.10844007
0.10635116 0.11157467 -0.48155284 -0.37757793 0.2126837 -0.37093884 -0.38546103 0.18902104
0.09482236 0.015272738 0.9529055 0.1476915 0.17677994 0.27237052 -0.2275208 0.008696536
-1.2723248 0.0038402975 0.22407477 -1.4024893 0.05842801 -0.8275446 0.06416189 0.5531162
0.51513743 0.21740128 0.19860442 0.31809813 -0.15468481 -0.04217606 -0.10771913 -0.63321114
-0.15842564 -0.101314254 0.03577226 -0.20436034 -0.3853843 -0.11610459 -0.7381976 -0.10970262
0.12637597 0.05487009 -0.09029776 0.16432261 -1.0694599 0.062424522 0.4725693 0.21140026
-0.13478118 0.12359179 0.25629708 0.19103147 -0.63178027 0.08186241 0.23833925 0.28875524
-0.6165559 0.27591228 0.0535624 -0.40819982 -0.04128488 -0.40935636 -0.49547347 -0.13908717
0.8843229 0.3853652 0.29858994 -0.49180433 0.005017308 0.06378583 0.15591055 0.5079922
-0.077013865 -0.041867547 -0.3532847 0.051693883 0.18104197 -0.0010382519 0.037683986 -0.11383158
0.47527567 -0.08313413 0.7016975 0.072015174 0.60333025 -0.24328513 0.16618401 -0.056882214
0.22158413 0.18595155 0.61614925 -0.25625375 0.33771038 -0.9969793 -0.5758714 0.19528213
-0.36012787 -0.0954721 0.6280511 -0.00031591844 0.8191931 -0.30441034 -0.13263224 0.18089354
-0.027264796 0.2937789 0.058091827 -0.75235873 0.05452366 -0.17791693 0.46302485 0.58757824
-0.010576252 -0.35146627 0.13240203 0.7218594 -0.38352212 -0.31129727 0.030782793 0.23133388
0.051117755 0.33632213 0.071814604 0.39654368 -0.42189062 0.65714717 0.20338498 0.27919295
-0.38425812 -0.044016026 -0.21121581 -0.37394026 0.057570815 0.30249327 0.6173904 -0.054016083
00000000: 099f 013f ec4d 1dbe e139 363e 0bd8 61be
00000010: 906c 8a3e f957 d2bf 66f0 ae3e 2fef 3e3d
00000020: 2027 8a3d 35d1 dbbf 2420 9e3d 68dd 9e3e
00000030: 8330 ae3e ef6f dd3b 97b8 14bd 8389 9a3d
00000040: aa5d f53d c0f1 53bc eab7 6b3e baf3 a6bd
00000050: 94f7 e03e 156b 9abe 3866 f03d 9d9a 21bf
00000060: c5c8 7b3e f16d 183d ca88 0a3e 7ef1 013d
00000070: 91f0 c2bf 48a1 53bf 07df 8f3e 4066 bdbd
00000080: 6aea 553e 2083 813e fdc1 3b3e ef3e e3bc
00000090: c121 153f 5a6c 29be 7370 17be 1f01 563e
000000a0: eb5b 4c3c 3c06 a13e 86fe 7d3c 8299 82bc
000000b0: 6588 cc3d ec9a 6ebd b84b f23e fd1f bdbe
000000c0: 747d cabd 771e 54bf dcac d13d 264e ba3e
000000d0: 6f40 393f 0738 8bbe 7aa4 44be 9045 8bbe
000000e0: 3112 b13e 6e0b f0bd 2e80 8e3d 5bcc bbbd
000000f0: 22ce 42be 89ef f23e fdec 863e 6270 f8bd
00000100: bb63 ffba 48ea ecbd 18f4 77bf f213 a93e
00000110: a6b8 173e 815d b9bc c360 813c cc34 9d3d
00000120: b0ba 2c3e 24a4 573d ea80 c2bf 5ced 87bc
00000130: 85d7 87be 83a5 11be 1a77 093e e783 873e
00000140: 79af 823e 40e9 8d3b f8ea 74bf cd87 043f
00000150: 8976 eb3d 5646 0a3e b458 1cbd be36 ff3d
00000160: c93e 6dbb 3385 bfbe 9029 803e 00f0 0db8
00000170: 8e09 bfbe 2813 1ebf 3ba7 1abd 1ca9 87bd
00000180: e2e4 633d 87e1 97be acad b03e 19e1 f3be
00000190: 9f63 003e 1a25 c8bd a608 5abf fc3d 283f
000001a0: 6abf 45bc 08eb ffbe 2b72 9d3e d46d edbe
000001b0: 9d80 083e 20cc 493e d00d 4bbc 5de9 4e3d
000001c0: 2df8 5f3d 430c 9b3d 34d2 36bd 5550 e63e
000001d0: fd64 9abe ac8f 25be 8fb9 c23e d415 debd
000001e0: a3ce d93d 4381 e43d 188e f6be e551 c1be
000001f0: c1c9 593e b2eb bdbe 265b c5be bb8e 413e
00000200: 3a32 c23d 823a 7a3c 9df1 733f 713c 173e
00000210: cd05 353e 2674 8b3e 36fb 68be ea7b 0e3c
00000220: 8adb a2bf 80ad 7b3b db73 653e c584 b3bf
00000230: 3652 6f3d f7d9 53bf 4f67 833d 0699 0d3f
00000240: 0ce0 033f 719e 5e3e f55e 4b3e c2dd a23e
00000250: b265 1ebe cec0 2cbd d99b dcbd 201a 22bf
00000260: 553a 22be d97d cfbd ef85 123d d643 51be
00000270: 1751 c5be 3ec8 edbd 85fa 3cbf c4ab e0bd
00000280: b468 013e 76bf 603d 08ee b8bd 3044 283e
00000290: 10e4 88bf dbb0 7f3d 9af4 f13e 4f79 583e
000002a0: 1404 0abe b11d fd3d 5f39 833e c19d 433e
000002b0: 5abc 21bf 7ba7 a73d 340f 743e bad7 933e
000002c0: 9cd6 1dbf 6044 8d3e 3f64 5b3d 91ff d0be
000002d0: 561a 29bd 2897 d1be b3ae fdbe de6c 0ebe
000002e0: fc62 623f 964e c53e c8e0 983e c7cd fbbe
000002f0: 3b68 a43b 25a2 823d 04a7 1f3e c70b 023f
00000300: 72b9 9dbd 4e7d 2bbd bbe1 b4be f7bc 533d
00000310: 1163 393e f415 88ba 865a 1a3d 8820 e9bd
00000320: 5557 f33e 3a42 aabd 73a2 333f b17c 933d
00000330: da73 1a3f bd1f 79be 242c 2a3e 53fd 68bd
00000340: f3e6 623e 156a 3e3e f5bb 1d3f b133 83be
00000350: 60e8 ac3e 093a 7fbf 4f6c 13bf 0af8 473e
00000360: ae62 b8be e086 c3bd f5c7 203f dba1 a5b9
00000370: a4b6 513f acdb 9bbe bfd0 07be 283c 393e
00000380: 6c5a dfbc 306a 963e b2f1 6d3d 959a 40bf
00000390: 3454 5f3d db2f 36be 9811 ed3e 876b 163f
000003a0: 0448 2dbc 63f3 b3be 6694 073e c7cb 383f
000003b0: 035d c4be 5b62 9fbe 322c fc3c cae2 6c3e
000003c0: da60 513d 6a32 ac3e 8913 933d c607 cb3e
000003d0: 0c02 d8be cc3a 283f 2744 503e 61f2 8e3e
000003e0: 7bbd c4be 264a 34bd f548 58be 1975 bfbe
000003f0: 60cf 6b3d 66e0 9a3e 4c0d 1e3f f83f 5dbd
